lorenz attractor/params/cell_0_params.pth (torch, 3134 bytes, 3 tensors)

kernel f4 [3, 16]
000000 07 1f 57 be cd 31 c8 bc a2 0d 0c 3f ea 17 f2 be
       -0.2100793 -0.02443781 0.547083 -0.4728387
000010 10 d9 ac be a9 47 18 bf c0 a5 3e bf 05 f3 10 3f
       -0.33759356 -0.59484345 -0.74471664 0.5662082
000020 67 5e 15 3e 6d f4 2f bf 9a b9 0e bf f3 17 35 bf
       0.14586793 -0.6873234 -0.55751956 -0.7073967
000030 47 56 2f 3f 47 13 43 bf b0 f0 9f 3e cb b8 14 3f
       0.68491024 -0.7620129 0.31238317 0.5809447
000040 67 a3 cb bc 00 12 f7 3e 73 a8 e4 3d bd f7 0f 3f
       -0.02485819 0.4825592 0.11164942 0.56237394
000050 33 b4 b7 bc 20 27 31 bf 6f 7d 28 3f ad 0a 3e 3f
       -0.022424793 -0.69200325 0.65816396 0.7423504
000060 7a 5a 2f 3f 93 a2 61 be 27 0b 16 bf ab b4 ae be
       0.6849743 -0.22034673 -0.5861077 -0.34122214
000070 c7 c6 44 3e e7 0b 94 3d 60 bd d9 3e f7 13 02 be
       0.19216453 0.07228833 0.42527294 -0.12702928
000080 c3 ce 4c be c7 34 1d 3f 80 04 2d 3e 42 1d 20 3f
       -0.20000748 0.61408657 0.16896248 0.62544644
000090 77 c7 b9 3e 75 bc 10 bf 73 83 5c 3e 23 08 15 bf
       0.36284992 -0.5653756 0.21534519 -0.5821554
0000a0 3a 11 34 3f 18 61 e9 be 53 41 c0 3e 87 86 13 3e
       0.70338786 -0.4558189 0.37549838 0.14406787
0000b0 55 93 30 3f 15 0d 84 be 9a a7 5b 3e 17 05 e4 3e
       0.6897481 -0.2579123 0.21450654 0.44535133

recurrent_kernel f4 [16, 16]
000000 f4 da da bf 6b 93 fc 3e 5e 6e 2d 3e 72 e7 50 3f
       -1.7098069 0.4933122 0.16936633 0.8160316
000010 8d 7c bf bc f6 10 4b 3f 12 2c 57 be a0 e2 18 3f
       -0.02337482 0.79322755 -0.21012905 0.597208
000020 6f 4d 27 3f 00 7e dd 3d 5d 78 37 3f b4 87 3d 3f
       0.6535253 0.10815048 0.71668035 0.7403519
000030 e2 e6 23 3f 1c 0a 19 3f a5 ff c9 bc 25 12 a4 3e
       0.64024174 0.5978105 -0.024658034 0.32045093
000040 6e 56 4a be 85 66 11 c0 56 ef 0b bf 88 48 6c be
       -0.19759533 -2.2718823 -0.5466207 -0.23074543
000050 4b 60 57 3e ea bc 91 3e c6 18 1b bf b0 6b b6 3d
       0.21032827 0.28464442 -0.60584676 0.089072585
000060 ea 17 3e be 54 59 a7 bd 34 54 26 3e ed 61 0a 3f
       -0.1856381 -0.08171335 0.16243058 0.5405567
000070 b8 a6 4b 3f 42 b0 a8 3e 50 c2 fd bc 22 bc 21 3f
       0.7955127 0.32946974 -0.030976444 0.6317769
000080 a9 01 3e bf d7 bd 40 bf 51 b2 12 c0 a0 67 49 3e
       -0.74221283 -0.7528967 -2.2921336 0.19668436
000090 05 c1 12 bf 76 09 1a 3f a8 bc 7c 3e b2 1c e1 3e
       -0.57325774 0.60170686 0.24681342 0.43967205
0000a0 ca 92 a8 be fc ce 4f bf 96 23 76 be 02 c6 a5 bd
       -0.3292449 -0.8117521 -0.24037012 -0.080944076
0000b0 df e4 bc be ec 22 34 be 5f 11 11 3f 91 0f 16 bf
       -0.36893365 -0.17591447 0.5666713 -0.586175
0000c0 d4 15 2b 3f d8 0b cd be 4e a1 07 3f d4 db fe bf
       0.6683018 -0.400481 0.52980506 -1.9910836
0000d0 40 1f 60 be 49 b5 07 3e 5a 4a d7 be 60 90 80 be
       -0.21886921 0.13252749 -0.42048913 -0.2511015
0000e0 38 f2 08 bf ea ad 5a 3e 1d c0 bc 3c 88 8e dc bd
       -0.53494596 0.21355405 0.023040826 -0.10769373
0000f0 7c 38 0e be 96 49 e9 3e eb 6f 8b 3e 0f 74 00 bf
       -0.13888735 0.45563954 0.27233824 -0.5017709
000100 00 f8 2a 3f 36 ec c3 3e 2a dc 02 bf 12 08 60 be
       0.6678467 0.38266152 -0.51117194 -0.21878079
000110 83 7b 0d c0 86 30 c4 3d 2a c2 15 bf 40 27 bf 3e
       -2.2106636 0.095795676 -0.58499396 0.37334633
000120 76 c7 c7 3e 5c 1c c4 3e 14 0d 69 bd 5c db 2b bf
       0.39019364 0.38302886 -0.056897238 -0.6713159
000130 c6 08 fb be 26 f7 d0 3d bb 6f 82 be 1b ae 42 3f
       -0.4903013 0.1020339 -0.2547587 0.76046914
000140 9a ef dd be bc ca 00 3f 04 e8 4b 3f b9 62 11 be
       -0.43346864 0.5030935 0.796509 -0.14197816
000150 40 e3 7c 3e de ba c0 bf 79 50 2a be a9 3a d9 38
       0.24696064 -1.5057027 -0.1663226 0.00010358293
000160 4c 8e cb 3e 1b c7 51 3f 42 2c 7a be b4 b7 e7 bc
       0.39757 0.81944436 -0.24430946 -0.028285839
000170 7b 27 79 be f4 a0 94 3e 94 50 1e 3f 1d b6 41 3f
       -0.24331467 0.29029047 0.618417 0.7566851
000180 ef c9 fa 3e 05 9c 1b bf bf 47 42 bf 7e ee a8 bc
       0.48982188 -0.6078494 -0.75890726 -0.020621534
000190 ee ce f7 3d 3d 4e 45 3f b6 68 ef bf 35 58 ef 3e
       0.121000156 0.7707251 -1.870383 0.46746984
0001a0 f3 c1 c6 be 0d ae 4f bf 78 93 0a bf 2b 83 15 3e
       -0.38819847 -0.81124955 -0.5413127 0.14600818
0001b0 ba 54 1e be 55 f2 24 3e ba 16 0d be f0 ac 81 3e
       -0.15462008 0.16108067 -0.13778201 0.25327253
0001c0 80 1c 38 3e f8 d0 c2 be 9c 80 c7 3e da b1 0b 3f
       0.17979622 -0.38050056 0.3896531 0.54568255
0001d0 92 cb 42 3f 4b e8 42 bf bf a0 61 be 16 32 80 bf
       0.76091874 -0.761357 -0.22033976 -1.0015285
0001e0 4f ea ca 3e cf e2 03 3f d1 03 0d bf 22 37 04 3f
       0.39631888 0.5151796 -0.5508395 0.51646626
0001f0 24 6d 13 bf da eb 13 3f 8d fd 2f 3d 79 6d a0 3c
       -0.5758841 0.57781756 0.042966414 0.01958345
000200 80 55 4c 3f b8 ed c2 be 06 96 11 bf 4a 94 d5 be
       0.7981796 -0.3807199 -0.5686954 -0.41714698
000210 41 d8 17 bf 1a f8 56 3d 94 be e4 3e f1 ae 05 3f
       -0.5931435 0.0524827 0.4467665 0.52220064
000220 f3 6b b4 bf 00 27 f8 bd e5 84 07 3d 77 b1 13 bf
       -1.4095443 -0.12116814 0.033085722 -0.57692665
000230 8a 6a 09 3f a4 93 0f bf 8c 66 ff 3e 96 b7 2a 3f
       0.5367819 -0.56084657 0.49882925 0.6668638
000240 22 98 5e be f2 76 94 be f7 cd 5a be e2 d8 6e 3e
       -0.21737722 -0.28996998 -0.21367632 0.23324922
000250 94 5c 1d bf f8 32 0c 3e d0 d6 b7 be 1c f8 0f bf
       -0.6146939 0.13691318 -0.35906076 -0.5623796
000260 aa 79 4a 3f 56 84 9d bf fa 92 22 3f 54 f9 42 be
       0.79091895 -1.2306011 0.6350552 -0.19040424
000270 d2 51 25 be 05 2c 95 be 34 c9 26 bd 13 27 ca 3e
       -0.16144493 -0.29135147 -0.040719226 0.39482936
000280 86 5c 48 bf d0 21 18 bf b8 4d 34 be cf 36 b4 be
       -0.7826618 -0.59426594 -0.17607772 -0.35198066
000290 f7 39 d4 3d 9e a2 f1 3e 54 91 01 bf e0 1e 0b bf
       0.103626184 0.4719438 -0.5061238 -0.54343987
0002a0 55 c9 2e be 51 2c 97 3d 26 c5 96 bf 11 a2 18 3f
       -0.1706899 0.073814996 -1.1778915 0.59622294
0002b0 e7 b8 94 3e 5c 14 0b 3f 86 dc 6c 3e e6 b8 1f bf
       0.2904732 0.5432794 0.23130998 -0.6239151
0002c0 b0 a3 ec 3e 17 78 32 3f 0e d1 5d 3d 62 ba 16 bf
       0.46218634 0.6971449 0.05415445 -0.5887815
0002d0 91 c4 1b bd 4e 76 0a bf 7f 94 fb be e8 d8 b1 3e
       -0.038029257 -0.5408677 -0.4913673 0.347358
0002e0 ce 59 f7 be 36 a1 14 bf b9 bf d7 be 60 2f b6 bf
       -0.48310703 -0.5805849 -0.4213846 -1.4233208
0002f0 08 c7 e2 be 7f 09 1d 3f 17 11 20 3f b1 da c9 3e
       -0.44292474 0.61342615 0.6252608 0.3942466
000300 ae 31 20 bf 1e f5 46 bf f1 4f 2b 3f 97 9e 20 3e
       -0.62575805 -0.7771777 0.66918856 0.15685497
000310 6b 6b 44 3f 88 5d 46 bf 30 02 48 bf d1 03 41 3c
       0.76726407 -0.7748647 -0.7812834 0.011780695
000320 18 ae 29 bf 84 68 48 be 79 9a fb 3e 43 9f 0a 3e
       -0.6628127 -0.1957112 0.4914129 0.13537316
000330 65 70 f7 bf e6 9a 2b 3f 6c 25 93 be 8f ab ce be
       -1.9331175 0.6703323 -0.28739488 -0.40365264
000340 25 bb 06 bf 4a 3a 4d 3f 2e 6d 06 3e 36 94 bd 3e
       -0.5262931 0.8016707 0.13127586 0.37027138
000350 f8 6d 16 be 10 8d dc 3d 98 e6 d7 bd 0c 5b 3e 3f
       -0.14690387 0.10769093 -0.10542029 0.74357677
000360 12 69 3d bf 86 91 14 be f2 5b 10 bf 87 c1 49 3f
       -0.7398845 -0.14508638 -0.563903 0.78810924
000370 fc fe 03 3f 5a 7f 14 c0 00 76 d7 be 2f af 1d 3d
       0.5156095 -2.320273 -0.42082214 0.038497146
000380 90 76 37 bf 3e 6e 0f bf 8c 48 33 3e 3e 83 26 3f
       -0.71665287 -0.5602759 0.17508143 0.6504401
000390 76 84 86 be e5 e7 e5 3e 08 80 df 3e 84 92 23 3d
       -0.26272935 0.44903484 0.43652368 0.03993465
0003a0 f3 89 d7 bc 22 3c ed bd 38 10 91 3e 1d 08 a3 3e
       -0.026310897 -0.11583735 0.28332686 0.31842127
0003b0 cc 35 f3 be b9 a4 00 bf 69 21 18 c0 5b fc 14 3f
       -0.4750198 -0.50251347 -2.3770392 0.58197564
0003c0 ca c9 21 3f 6c f1 29 3f d8 61 a1 be 4a 63 4b be
       0.6319853 0.66384006 -0.3151996 -0.19862095
0003d0 68 71 39 bf 05 58 1c bf df f5 32 bf ca 7a 63 3d
       -0.7243867 -0.6107181 -0.6990642 0.055537023
0003e0 b4 b6 91 bd 96 7d 1e 3e 74 f1 64 be 36 e4 39 3f
       -0.07114926 0.15477595 -0.22357732 0.7261385
0003f0 30 cb b3 be 20 3f ef 3e 55 85 c6 3e 7e 19 56 bf
       -0.35115957 0.46727848 0.387736 -0.8363265

bias f4 [16]
000000 00 00 00 00 00 00 00 00 00 00 00 80 00 00 00 00
       0.0 0.0 -0.0 0.0
000010 00 00 00 00 00 00 00 00 00 00 00 80 00 00 00 00
       0.0 0.0 -0.0 0.0
000020 00 00 00 00 00 00 00 80 00 00 00 00 00 00 00 80
       0.0 -0.0 0.0 -0.0
000030 00 00 00 00 00 00 00 00 00 00 00 00 00 00 00 00
       0.0 0.0 0.0 0.0
