lorenz attractor/params/cell_2_params.pth (torch, 3134 bytes, 3 tensors)

kernel f4 [3, 16]
0	0xbe66a9a8	-0.22525656
1	0x00000000	0.0
2	0xbf4479b3	-0.767482
3	0x00000000	0.0
4	0x3f42b0b4	0.7605088
5	0xbf5bcf71	-0.85863405
6	0x00000000	0.0
7	0xbf20ee2e	-0.62863433
8	0x00000000	0.0
9	0x00000000	0.0
10	0x3f1966c0	0.5992241
11	0xbed36252	-0.4128595
12	0x00000000	0.0
13	0xbe51190c	-0.20419711
14	0xbe649850	-0.22323728
15	0xbe6976ac	-0.22799176
16	0x00000000	0.0
17	0x3f1de958	0.6168418
18	0x3f7f99a4	0.9984381
19	0x00000000	0.0
20	0x3da3dac0	0.080007076
21	0x00000000	0.0
22	0x00000000	0.0
23	0xbea9a8bc	-0.33136547
24	0x3deed9b0	0.11662614
25	0x00000000	0.0
26	0xbe9218a2	-0.28534418
27	0xbf4bdb7f	-0.796318
28	0xbf0717ec	-0.52770877
29	0x3ef4a61c	0.4778298
30	0xbf1ceece	-0.6130189
31	0x00000000	0.0
32	0x3d40cfc0	0.047073126
33	0xbe013228	-0.1261679
34	0xbe912f76	-0.28356522
35	0x3d2c3f00	0.04205227
36	0x00000000	0.0
37	0xbe9344c4	-0.28763402
38	0x00000000	0.0
39	0x00000000	0.0
40	0x00000000	0.0
41	0xbdbb3998	-0.091418445
42	0xbf23b968	-0.6395478
43	0xbf16ec56	-0.5895437
44	0x00000000	0.0
45	0xbe8c497e	-0.2739982
46	0xbe237f80	-0.15966606
47	0x00000000	0.0

recurrent_kernel f4 [16, 16]
0	0xbf81eae8	-1.0149813
1	0xbe1fb11c	-0.15594906
2	0xbf3378f6	-0.70106447
3	0xbf40a158	-0.7524619
4	0x3f3dcacb	0.7413756
5	0xbf2131f8	-0.6296687
6	0xbf13702e	-0.5759305
7	0xbed53cbe	-0.41647905
8	0x3f46af11	0.7761088
9	0x3e3a5f9e	0.18200538
10	0xbd509279	-0.050920937
11	0x3e9cbf35	0.3061463
12	0xbe9b2647	-0.3030264
13	0x3e419bb4	0.18907052
14	0xbed61ce5	-0.4181892
15	0xbf381ede	-0.719221
16	0xbf2f7da0	-0.68551064
17	0xbfb7e5a8	-1.436696
18	0xbef42500	-0.4768448
19	0xbecc534a	-0.39907295
20	0x3e5bbda6	0.21459064
21	0x3eba8b46	0.36434382
22	0x3e57435e	0.21021792
23	0xbf539f91	-0.82665354
24	0x3d3d592a	0.04622761
25	0x3f3cf32a	0.7380854
26	0xbe950276	-0.2910344
27	0x3dcbf34e	0.09958516
28	0x3f4fbe1c	0.8114946
29	0xbef6d222	-0.48207194
30	0xbd775176	-0.06038042
31	0x3f3d5e44	0.7397196
32	0xbf51b45c	-0.8191583
33	0xbf1ad666	-0.60483396
34	0xbfcd239b	-1.6026491
35	0x3eb253df	0.34829614
36	0x3f3b4a63	0.7316038
37	0x3eef6814	0.46759093
38	0xbdb28315	-0.08716408
39	0xbf286d66	-0.6579193
40	0x3e6c7629	0.2309195
41	0x3db7f04d	0.089813806
42	0xbf428b9d	-0.7599428
43	0xbf1a6245	-0.603062
44	0xbe1dbd25	-0.15404184
45	0xbe474e26	-0.19463405
46	0xbe99e856	-0.3006007
47	0xbd8ed645	-0.069744624
48	0xbdb4d9b1	-0.08830584
49	0x3efb3de4	0.49070656
50	0xbf0b45d3	-0.5440342
51	0xbf8d6d73	-1.1049026
52	0x3e910110	0.28321123
53	0xbf065804	-0.5247805
54	0x3e982809	0.29718044
55	0xbdb31669	-0.08744509
56	0xbed75686	-0.420582
57	0x3f18beb0	0.59665966
58	0xbf515741	-0.81773764
59	0xbdccaf6b	-0.09994396
60	0x3e8f9df2	0.2805019
61	0x3f2277d6	0.63464105
62	0xbf285551	-0.6575518
63	0x3eec5e1e	0.46165556
64	0x3f211de5	0.6293624
65	0x3f52d932	0.82362664
66	0x3eb9e44e	0.36306995
67	0xbf1da2bc	-0.6157644
68	0xbf673fe2	-0.9033185
69	0xbf1ce43c	-0.6128576
70	0x3e6cc962	0.23123696
71	0x3f11581a	0.5677506
72	0x3e838c76	0.256931
73	0xbdc31d22	-0.09527041
74	0xbf3f3c5a	-0.74701464
75	0xbeca2d60	-0.39487743
76	0xbf4b7d78	-0.79488325
77	0x3e4c7324	0.19965798
78	0xbf12ef1b	-0.57396096
79	0xbc80842d	-0.015688026
80	0xbf1487e5	-0.5801986
81	0xbf234a85	-0.6378558
82	0xbf11243f	-0.5669593
83	0x3f524f12	0.821519
84	0xbf174f47	-0.5910534
85	0xbf8d1e40	-1.1024857
86	0xbf514e63	-0.81760234
87	0xbebfbced	-0.37448826
88	0x3dd4f0c7	0.10397487
89	0x3e8d7928	0.27631497
90	0x3ca4122a	0.020028193
91	0x3e9a2208	0.3010409
92	0x3d5534e8	0.05205241
93	0x3d008537	0.031377044
94	0x3f3ecebc	0.745342
95	0x3c9edbbf	0.019391892
96	0xbe94282e	-0.28936905
97	0xbe81b548	-0.2533362
98	0x3e21bc33	0.15794449
99	0x3f2c2c90	0.67255497
100	0x3e5dfd36	0.21678624
101	0x3f38ebed	0.72234994
102	0xbfb8aa1f	-1.4426917
103	0xbe340422	-0.17579702
104	0x3e56987e	0.20956609
105	0xbf1ba1bc	-0.6079366
106	0xbef0639d	-0.46951
107	0x3eecc926	0.46247214
108	0xbe82f757	-0.2557933
109	0x3f08c143	0.53419894
110	0x3f1d9c0a	0.6156622
111	0x3e5f02ec	0.21778458
112	0xbe50481e	-0.2034001
113	0x3f1fac14	0.62371945
114	0x3c8f4c9e	0.017492589
115	0xbd65902c	-0.056045696
116	0xbeda1811	-0.42596486
117	0xbd75eaeb	-0.06003849
118	0xbd2d0fb0	-0.04225129
119	0xbfd19ae3	-1.6375393
120	0xbeeb3c4a	-0.45944434
121	0xbea27164	-0.31727135
122	0x3d6ff13c	0.05857967
123	0xbe224eb6	-0.15850338
124	0x3f48d89c	0.7845552
125	0xbe640f72	-0.22271517
126	0xbef88054	-0.48535407
127	0xbe07107d	-0.13189884
128	0x3f244e18	0.6418166
129	0x3f47a6c0	0.77988815
130	0x3f08867d	0.5333021
131	0x3f0c13fa	0.5471798
132	0x3d920560	0.071299314
133	0x3eb718f8	0.35761237
134	0xbee8d300	-0.4547348
135	0xbedad8f6	-0.42743653
136	0xbfce3a92	-1.6111624
137	0x3f046a7b	0.51724976
138	0x3d4501ee	0.048097543
139	0xbec6e8f4	-0.38849604
140	0x3e09132f	0.13386224
141	0x3f2cc932	0.674945
142	0x3eab0c9c	0.33408058
143	0x3e36000a	0.17773452
144	0xbf084504	-0.5323031
145	0x3e524572	0.20534304
146	0x3ac8a900	0.0015309155
147	0xbea5a9c6	-0.3235609
148	0xbea3f008	-0.32019067
149	0xbf0c2a50	-0.54752064
150	0x3edef37c	0.4354514
151	0xbf0453ef	-0.5169057
152	0xbf15ff9b	-0.5859315
153	0xbf8d545a	-1.1041367
154	0xbf4c82c6	-0.79887044
155	0xbe34245c	-0.17591995
156	0xbd135faf	-0.035979923
157	0xbf2c79ee	-0.6737355
158	0x3f51d293	0.81961936
159	0x3f060d20	0.5236378
160	0xbf41288a	-0.7545248
161	0xbe99bd7f	-0.30027387
162	0x3bd8e7cc	0.006619429
163	0xbde7527e	-0.11295031
164	0x3f1c011a	0.6093918
165	0xbe08f5b8	-0.13374984
166	0xbecf854a	-0.4053138
167	0xbf0b01c3	-0.54299563
168	0xbe80ed4e	-0.2518105
169	0xbf36f41d	-0.7146624
170	0xbf956b86	-1.1673439
171	0xbed1eb75	-0.40999952
172	0x3e06626e	0.13123485
173	0x3e2159d1	0.15756918
174	0x3e7a00dd	0.24414392
175	0x3ea305ab	0.31840262
176	0x3f03c2ba	0.51469004
177	0x3f3742e2	0.7158643
178	0x3ed90adc	0.42391098
179	0xbf438cc4	-0.76386666
180	0x3d8a81f1	0.067630656
181	0x3e8bd5b5	0.27311483
182	0x3eb7b4f2	0.35880238
183	0x3eb91aef	0.3615336
184	0x3f3cc22e	0.73733795
185	0x3ed33a19	0.41255262
186	0x3f17406a	0.59082663
187	0xbf830833	-1.0236877
188	0x3e791239	0.24323358
189	0xbf0eb812	-0.5574962
190	0xbed67ee1	-0.41893676
191	0x3f2134ab	0.6297099
192	0x3e4f036f	0.20216154
193	0xbf49308a	-0.7858969
194	0x3ed33e15	0.41258302
195	0x3d050820	0.03247845
196	0xbec63548	-0.38712525
197	0x3f204e48	0.6261945
198	0x3d61ada2	0.05509723
199	0x3f491adc	0.7855661
200	0x3f50dc89	0.8158651
201	0x3ea77d86	0.32712954
202	0x3f41e3eb	0.757384
203	0x3c41a8a4	0.011819992
204	0xbfcccd29	-1.600011
205	0xbeda2486	-0.4260599
206	0x3f4390e3	0.76392955
207	0x3e01c179	0.1267146
208	0xbe519ed2	-0.20470741
209	0xbf3e0537	-0.7422671
210	0x3cc55218	0.024086997
211	0x3d49001a	0.049072362
212	0x3f3b4dfc	0.7316587
213	0xbf11c594	-0.56942105
214	0x3e1382ff	0.1440544
215	0x3e0a10c8	0.13482964
216	0x3f3f9583	0.7483751
217	0x3dfeb5e4	0.12437037
218	0x3e9c436a	0.30520183
219	0x3ca0915c	0.019600563
220	0x3e6aca52	0.22928742
221	0xbf9a8409	-1.2071544
222	0xbf5275d0	-0.8221102
223	0x3ef80fce	0.48449558
224	0x3f2240ce	0.63380134
225	0xbf0e0092	-0.5546962
226	0xbf16e24c	-0.5893905
227	0x3dd5347e	0.10410403
228	0x3e1ea9a9	0.15494408
229	0x3bbcf622	0.005766646
230	0x3f31af14	0.69407773
231	0xbc48f08d	-0.012264383
232	0xbebfa265	-0.37428585
233	0xbedac336	-0.4272706
234	0x3e270039	0.16308679
235	0x3d8fa7ed	0.07014451
236	0xbd9f4fbc	-0.0777888
237	0xbe80b05c	-0.25134552
238	0xbff33522	-1.900059
239	0xbf2026b4	-0.62559056
240	0x3f5183f6	0.8184198
241	0x3f45c748	0.77257204
242	0x3ee6e651	0.45097592
243	0xbe6ae918	-0.2294048
244	0x3f396b5e	0.72429454
245	0x3eb367a2	0.35040003
246	0xbd8b435f	-0.067999594
247	0x3ec3e09e	0.38257307
248	0xbe992448	-0.29910493
249	0xbed6fb0b	-0.41988406
250	0xbeb96d08	-0.36215997
251	0x3ef59d3c	0.47971523
252	0xbe80f4a5	-0.2518665
253	0x3d862fe1	0.06552101
254	0x3ec5271c	0.385064
255	0xc003f62e	-2.0619006

bias f4 [16]
0	0x80000000	-0.0
1	0x00000000	0.0
2	0x00000000	0.0
3	0x80000000	-0.0
4	0x80000000	-0.0
5	0x80000000	-0.0
6	0x80000000	-0.0
7	0x00000000	0.0
8	0x00000000	0.0
9	0x80000000	-0.0
10	0x00000000	0.0
11	0x00000000	0.0
12	0x80000000	-0.0
13	0x00000000	0.0
14	0x00000000	0.0
15	0x80000000	-0.0
