lorenz attractor/params/cell_5_params.pth (torch, 3134 bytes, 3 tensors)

kernel f4 [3, 16]
0.11603284 -0.6455142 0.0 0.0 -0.65447736 0.0 -0.36093658 -0.6321763
-0.9103969 0.011851311 0.50801337 0.0 0.0 0.2921449 0.59102917 0.0
0.0 0.0 0.70401967 0.77634776 0.0 0.47783256 0.0 0.42604458
0.0 -0.7259772 0.0 0.105758786 -0.5069092 -0.00047957897 -0.015788794 0.82972217
-0.0147253275 0.0 0.0 0.0 0.71032274 0.78424513 0.0 -0.42808276
0.0 0.28384006 0.8541075 0.32771635 -0.3663093 0.27111483 0.0 -0.73483104
00000000: a0a2 ed3d 6b40 25bf 0000 0000 0000 0000
00000010: d48b 27bf 0000 0000 aecc b8be 4ed6 21bf
00000020: c50f 69bf 002c 423c 2a0d 023f 0000 0000
00000030: 0000 0000 0494 953e b04d 173f 0000 0000
00000040: 0000 0000 0000 0000 a23a 343f babe 463f
00000050: 0000 0000 78a6 f43e 0000 0000 8422 da3e
00000060: 0000 0000 a4d9 39bf 0000 0000 1098 d83d
00000070: cdc4 01bf 0070 fbb9 8057 81bc ac68 543f
00000080: 8042 71bc 0000 0000 0000 0000 0000 0000
00000090: b6d7 353f 4ac4 483f 0000 0000 aa2d dbbe
000000a0: 0000 0000 7c53 913e caa6 5a3f 70ca a73e
000000b0: e48c bbbe 90cf 8a3e 0000 0000 e31d 3cbf

recurrent_kernel f4 [16, 16]
-2.2997153 -0.60083747 -0.6549494 0.29465157 0.492004 0.654059 -0.6623802 -0.15757933
0.2798938 -0.48645175 0.4492724 0.5392958 0.15840161 0.29270667 0.2946495 -0.084995806
-0.12848935 -2.144906 0.15528409 -0.40025598 0.42015523 -0.80052143 -0.37485993 0.41762173
0.2682897 0.23020986 0.03701628 -0.17636171 0.5100488 -0.04164674 -0.06322358 -0.089671046
0.17635357 -0.6602115 -1.1939353 -0.47679487 -0.13008037 -0.066005655 -0.52480114 -0.29752675
-0.25656223 -0.14329825 0.2398877 -0.44245964 0.053911418 -0.5543477 0.7346698 -0.5375575
-0.37170693 -0.23377778 -0.375512 -1.9558221 0.3811538 -0.3810594 -0.22265327 0.30313382
-0.036773603 -0.27324247 0.28650904 -0.3169614 -0.65863204 -0.4044001 -0.47267646 -0.69028354
0.23658179 -0.49675032 -0.5563715 -0.47419694 -1.1763561 0.53914785 0.39244896 0.07463017
0.07702817 -0.06287177 0.23625651 0.77014357 0.012950797 0.3271054 0.28608313 -0.7656177
-0.043600123 0.5423316 -0.20942084 -0.6844216 0.2697871 -0.8986318 0.44797635 0.0030796437
-0.4161318 0.7578014 -0.38494933 0.38703874 -0.38109255 -0.6566221 0.26139152 -0.35027248
-0.48047033 -0.17420249 -0.1557877 -0.6646303 0.62156194 -0.19416454 -0.8880198 0.027262794
0.09243606 -0.21593706 0.14518806 0.60316074 0.017229 -0.659677 0.7901614 -0.6769444
0.20658624 -0.5833435 0.38344687 0.46845597 0.82420045 0.29709104 0.05059989 -2.118547
0.4362559 0.73252684 -0.28605166 -0.17598388 -0.5003647 -0.09640929 -0.40718827 -0.5577737
-0.772285 -0.37201765 -0.6731539 0.23055024 -0.4085432 -0.01181462 -0.3745383 -0.2211523
-1.1053127 0.2361627 -0.21404922 0.16293171 0.025385262 0.11317621 -0.28776863 0.7507793
-0.3162944 0.75580704 -0.52251303 0.7551381 -0.07281457 0.23095936 -0.41063872 0.2764118
-0.02936466 -1.2374735 -0.08744657 0.7619505 0.7462594 0.13614354 0.37188035 -0.34002754
0.15300749 0.52697104 -0.5165242 0.39867526 -0.32972333 0.0967621 0.55855817 0.15108885
-0.41344374 0.80161643 -1.3259202 0.6848442 0.2129555 -0.21613902 -0.31474635 0.27695015
0.475854 0.129455 0.55482167 -0.6517769 -0.49563718 -0.66449356 -0.74104404 0.15242508
0.5416109 0.041415993 -0.034823228 -1.2092972 -0.07500067 0.07279445 0.5260027 0.22085325
0.3431967 -0.805819 -0.45929468 -0.1902981 0.5882756 -0.5933718 -0.09398929 -0.1069607
-0.6050035 -0.7839037 0.27027717 -0.31405944 -0.8073479 -0.12829195 0.4253868 -0.66281325
-0.8061365 0.022418056 0.6223433 -0.5998612 -0.38103077 -0.67847896 -0.79912674 -0.81459105
0.77949727 0.72134346 0.3239563 0.12595074 0.009051335 -1.84107 -0.4832269 0.40942296
0.09517078 0.5179041 -0.66979647 -0.04384271 0.5840567 -0.5493961 0.7830632 -0.29604277
0.39555103 -0.2282438 -0.5397019 0.46067792 0.157077 -0.42440444 -0.8432847 -0.7643335
0.39029616 -0.01969812 -0.40579408 -0.693244 0.61861193 0.13064726 0.36689833 -0.32647136
-0.23901042 0.05775288 0.2833117 0.76184696 0.7493049 0.5244195 0.7479945 -1.7285681
00000000: 892e 13c0 7cd0 19bf c4aa 27bf 92dc 963e
00000010: f3e7 fb3e 6970 273f c091 29bf 7a5c 21be
00000020: 3d4e 8f3e 3410 f9be 0807 e63e 4a0f 0a3f
00000030: 0834 223e a6dd 953e 4ddc 963e 4812 aebd
00000040: b692 03be 2446 09c0 cb02 1f3e 5aee ccbe
00000050: 961e d73e f9ee 4cbf a4ed bfbe 84d2 d53e
00000060: 445d 893e 22bc 6b3e 629e 173d 2a98 34be
00000070: 8f92 023f c695 2abd 5d7b 81bd 74a5 b7bd
00000080: 0896 343e 9f03 29bf dfd2 98bf 751e f4be
00000090: ca33 05be f92d 87bd 5e59 06bf 6d55 98be
000000a0: 205c 83be c7bc 12be 1fa5 753e 128a e2be
000000b0: 38d2 5c3d bbe9 0dbf 5213 3c3f 5e9d 09bf
000000c0: 5f50 bebe 7163 6fbe 1c43 c0be 6158 fabf
000000d0: 9726 c33e 381a c3be 38ff 63be 5b34 9b3e
000000e0: eb9f 16bd 70e6 8bbe 50b1 923e c448 a2be
000000f0: 1c9c 28bf 880d cfbe a602 f2be 6cb6 30bf
00000100: 7f42 723e 0f56 febe 5d6e 0ebf f1c9 f2be
00000110: d692 96bf 9805 0a3f 12ef c83e b4d7 983d
00000120: f2c0 9d3d eac2 80bd 3aed 713e 2128 453f
00000130: 942f 543c 5c7a a73e 7d79 923e 86ff 43bf
00000140: 0b96 32bd 3ed6 0a3f 6b72 56be 4136 2fbf
00000150: 8921 8a3e bc0c 66bf 285d e53e d9d3 493b
00000160: 3a0f d5be 46ff 413f 1418 c5be f129 c63e
00000170: 901e c3be 6318 28bf 1cd5 853e ea56 b3be
00000180: 3500 f6be 2362 32be d086 1fbe 3625 2abf
00000190: af1e 1f3f 12d3 46be 4455 63bf 3956 df3c
000001a0: 1e4f bd3d 9b1e 5dbe 2eac 143e be68 1a3f
000001b0: d523 8d3c 98e0 28bf 0448 4a3f 3a4c 2dbf
000001c0: 588b 533e 0056 15bf 2653 c43e 76d9 ef3e
000001d0: cdfe 523f 511c 983e d541 4f3d 4696 07c0
000001e0: ef5c df3e e186 3b3f 5d75 92be 1e35 34be
000001f0: e717 00bf 3c72 c5bd fb7a d0be 42ca 0ebf
00000200: 78b4 45bf 1979 bebe d053 2cbf 5d15 6c3e
00000210: 932c d1be 1c92 41bc 7cc3 bfbe c075 62be
00000220: e37a 8dbf a3d4 713e b82f 5bbe 92d7 263e
00000230: c1f4 cf3c eec8 e73d 6956 93be 1233 403f
00000240: 57f1 a1be 927c 413f 6ac3 05bf bb50 413f
00000250: ce1f 95bd 9c80 6c3e 3d3f d2be d985 8d3e
00000260: 288e f0bc 8865 9ebf 3017 b3bd 300f 433f
00000270: db0a 3f3f 3669 0b3e 1a67 be3e 1718 aebe
00000280: ffad 1c3e 93e7 063f ee3a 04bf 2a1f cc3e
00000290: 7fd1 a8be 352b c63d abfd 0e3f 09b7 1a3e
000002a0: e6ae d3be bc36 4d3f c1b7 a9bf f351 2f3f
000002b0: 0211 5a3e 8c53 5dbe 6f26 a1be 69cc 8d3e
000002c0: 23a3 f33e da8f 043e cb08 0e3f dada 26bf
000002d0: 28c4 fdbe 401c 2abf 10b5 3dbf 5215 1c3e
000002e0: 03a7 0a3f d1a3 293d cda2 0ebd 40ca 9abf
000002f0: f499 99bd 4215 953d 1da8 063f 5b27 623e
00000300: 7ab7 af3e 274a 4ebf ac28 ebbe 81dd 42be
00000310: 3b99 163f 37e7 17bf 757d c0bd 360e dbbd
00000320: 82e1 1abf eaad 48bf c561 8a3e 66cc a0be
00000330: 5aae 4ebf f75e 03be 4ccc d93e 21ae 29bf
00000340: f65e 4ebf 12a6 b73c e451 1f3f 8190 19bf
00000350: 7716 c3be ccb0 2dbf 9293 4cbf 0a89 50bf
00000360: 228d 473f f7a9 383f 9add a53e 3bf9 003e
00000370: 0d4c 143c 2fa8 ebbf 8469 f7be e39f d13e
00000380: e6e8 c23d 5d95 043f c877 2bbf 6a94 33bd
00000390: bd84 153f 39a5 0cbf d476 483f eb92 97be
000003a0: aa85 ca3e beb8 69be e729 0abf fadd eb3e
000003b0: cbd8 203e 8a4b d9be 82e1 57bf 5cab 43bf
000003c0: e6d4 c73e f45d a1bc 3ec4 cfbe 7078 31bf
000003d0: 5a5d 1e3f 65c8 053e 19da bb3e 4127 a7be
000003e0: 26bf 74be 498e 6c3d 3b0e 913e 6708 433f
000003f0: 72d2 3f3f 5b40 063f 917c 3f3f b841 ddbf

bias f4 [16]
0.0 0.0 -0.0 -0.0 0.0 0.0 -0.0 -0.0
-0.0 -0.0 -0.0 0.0 -0.0 0.0 -0.0 -0.0
00000000: 0000 0000 0000 0000 0000 0080 0000 0080
00000010: 0000 0000 0000 0000 0000 0080 0000 0080
00000020: 0000 0080 0000 0080 0000 0080 0000 0000
00000030: 0000 0080 0000 0000 0000 0080 0000 0080
