lorenz attractor/params/cell_1_params.pth (torch, 3134 bytes, 3 tensors)

kernel f4 [3, 16]
00000000: cc1c 11bf 0000 0000 6c6f 60be 90b8 91bd
00000010: 0000 0000 8eba 6b3f 0000 0000 0000 0000
00000020: d00f 91be faf9 32bf 0000 0000 0000 0000
00000030: d0c2 923e a2d0 e0be 0636 0b3f 34b8 543f
00000040: e801 013f 0000 0000 545e 62be 0000 0000
00000050: fe61 e1be 489b 3ebe 18a8 893e 0a05 033f
00000060: 10a7 31bd 0000 0000 2c84 9d3e 9c07 863e
00000070: 0000 0000 0000 0000 0000 0000 e850 e6bd
00000080: 0000 0000 fcb2 ccbe e00e 173e 20d5 3fbf
00000090: 2888 29bf a08e 343e eec2 2f3f 63ba 41bf
000000a0: 0000 0000 0000 0000 0000 0000 fc0e fa3e
000000b0: 70ef 453e 0000 0000 0000 0000 a567 72bf
-0.56684566 0.0 -0.21917504 -0.07115281 0.0 0.92081535 0.0 0.0
-0.28332376 -0.69912684 0.0 0.0 0.28664255 -0.43909174 0.5437931 0.8309357
0.50393534 0.0 -0.22106296 0.0 -0.44020075 -0.18613923 0.26886058 0.51179564
-0.043372214 0.0 0.30764902 0.2617768 0.0 0.0 0.0 -0.112459004
0.0 -0.39980304 0.14751768 -0.7493458 -0.6622338 0.17632532 0.68656814 -0.7567503
0.0 0.0 0.0 0.48839557 0.1932962 0.0 0.0 -0.946894

recurrent_kernel f4 [16, 16]
00000000: 74b4 9abf 51eb 8a3e 88cf bf3e 0c49 b6be
00000010: bd21 3c3f baf1 933e 0f26 213e b1d0 3fbf
00000020: 4417 0bbe df88 663e ada5 4e3e dc78 bfbe
00000030: afc7 9e3e 1701 35bf f0d0 033f 8451 03bf
00000040: 9687 043d 975e 9bbf 5cb8 52be 5118 f03e
00000050: 804a bc3e 2b61 8cbe 1894 84be 24ec 613e
00000060: f988 16bf 7f33 83be 38d0 a0bd d195 e23d
00000070: 2cdb 66be 0e36 283f ae79 c43e 4a41 89be
00000080: 4d73 22bf 6a91 bd3e 3ab7 aebf d263 37bf
00000090: 053b 07bf acc7 f6bd e12f dfbd eb9c 193e
000000a0: ee7f 1fbe 08fa abbe c8ae a2bd 78ec 1fbf
000000b0: 0684 aa3e a2ed 62be d413 2ebf cf1c 9f3e
000000c0: 5f1f 233f 102c f4be 145f d23e 900b d7bf
000000d0: 0858 17bf 9c5c 493f d67e b43e c158 253f
000000e0: eb0c 10bf be44 b8be 0c93 b1bc a6ef fe3e
000000f0: 7d6f c83e 308d 893e b94b 33bf 6904 9abd
00000100: b4a0 a4bc 6428 a63e 74da 36bd 977d 4cbf
00000110: f22d 14c0 0f97 dc3d e8a3 403f 0c9e 853e
00000120: a972 0d3f 4f70 94be ca5f 8c3e 8ef3 e4be
00000130: ed66 36bf 94f5 3d3f aaf8 043f 2272 9c3e
00000140: 5ae5 45bf 0052 b2bd 5f21 463f ee53 033f
00000150: d823 de3e cc76 11c0 55d1 8cbc ced0 353f
00000160: ae41 78be 9fa7 65bc e403 3e3f a603 ff3e
00000170: a61a 313f 1ae3 eebe bc33 c13e f56f 08bf
00000180: 1271 7c3e e3ef f83e 1776 48bf 7100 0fbf
00000190: 047d e03e c609 e73e 01a4 87bf 7c76 3c3e
000001a0: c889 f63e 9ae6 233e 8f9a 0ebf 813e ccbe
000001b0: b8ea 243f ccb7 0c3d 7d2b 36be d476 4a3f
000001c0: 298c f0ba aa15 05be b988 19bf f7f1 d93e
000001d0: 8f1b a63e 5a9f d23e de57 a6bd 6e9c 09c0
000001e0: 3ff5 273f 2a8f 03bf dd4a a6be 9b31 883e
000001f0: e684 d7be 5e5e c4be ec01 4abf 4868 293f
00000200: 39fa 2cbf b020 c83d 4a2e 7e3e c308 c1be
00000210: 3ada 6a3e 4dd4 8a3d 5b1c 0ebf b73a 99bd
00000220: ed12 f0bf 1743 aa3e cc8f 293d 06dd bd3e
00000230: cbff c93e d52f 20bf 83c8 e03e c2aa 0fbf
00000240: e7ef 1f3f 67d3 7fbe da6d d2be aec2 14be
00000250: 8b7a 393f 1400 1cbf 8102 e6be 4920 713e
00000260: d938 993e 63e3 86bf 78b6 a23e 9ff0 6c3d
00000270: 48ec 94be e031 2c3e 2a2b c83e 747e 3cbe
00000280: 1d7f 1bbf 6330 133f 7438 5c3e f1c3 7a3e
00000290: cb0d 343f 94c2 02bf 8779 2d3f c9ee acbe
000002a0: 6c95 1fbd f256 fc3e 5e6f c8bf a7ae aa3e
000002b0: 9c85 f6be 2b9c 7bbe b03f 1e3e bc16 f33d
000002c0: a6f1 2b3f b4b1 443f 23c6 10bf 70ea 27bf
000002d0: 3968 13bf 2da9 143e 7296 edbd 4efb 8dbe
000002e0: 48c6 fc3e f6bc e7be 97a1 3d3f c800 25c0
000002f0: deb1 ee3d 4daa 143e 3132 22be 53d8 27bf
00000300: 38d4 c2be 7ce4 95be dfe8 a4be 6536 143e
00000310: 83db 0d3f bce6 f73e 6cd2 14bf 3f7b 063f
00000320: 2e37 bb3e ced4 e5bd 2cc0 1ebe a41e c73e
00000330: ceb1 a2bf 402c 40bf 0ece b43e c68d 17bf
00000340: 417a b23e 325f 383f 62c7 cbbe d6de 253f
00000350: 32ec 07bf 809a 133f 326c 00bf 5cd1 afbe
00000360: c250 36bf 1f4c 293f b099 dcbe 8686 79be
00000370: 291e 1e3f 323b b5bf 4ad0 3ebe ef34 ee3e
00000380: f42d 2a3f 869d 43be 777d 9f3e e499 18bf
00000390: c737 ce3c 1617 5cbe 3017 46be a2f2 fb3e
000003a0: 129b f7be 7ae2 77be 13fa 153d 9587 36bf
000003b0: 3ec8 04bf f576 1b3c 4ab6 bdbf 829e 13bf
000003c0: c91f bd3e e95d a4be eb31 9b3d b69f 72be
000003d0: 1fbc 8ebe 2530 3a3f 9a99 213f b972 34be
000003e0: c1df 1ebf 390c 723e bb12 f6be d1b8 0d3f
000003f0: 68c6 cbbe 5ff4 03bf 4cde 28bf 5af5 a0bf
-1.208632 0.27132657 0.3746302 -0.35602605 0.7348898 0.2889536 0.15737174 -0.7492781
-0.13583094 0.2251315 0.20180388 -0.37396896 0.31011721 -0.7070479 0.5149069 -0.5129626
0.032355867 -1.2138242 -0.2057814 0.46893552 0.3677559 -0.27417883 -0.25894237 0.22062737
-0.58802754 -0.25625226 -0.078522146 0.110637315 -0.22544545 0.6570748 0.38374084 -0.26807624
-0.63457185 0.37025005 -1.3649666 -0.7163669 -0.5282443 -0.12049803 -0.10897804 0.15001266
-0.15576145 -0.33589196 -0.07943493 -0.624702 0.3330385 -0.22160962 -0.67999005 0.31076667
0.63719743 -0.47689867 0.41088164 -1.6800404 -0.591187 0.78656936 0.35253018 0.6458855
-0.5626971 -0.35989946 -0.021676563 0.49792212 0.3914756 0.2686553 -0.7003742 -0.075203724
-0.02009616 0.3245269 -0.044641927 -0.79879135 -2.3153043 0.10771 0.752501 0.26097143
0.5525308 -0.28991935 0.2741683 -0.44717067 -0.712508 0.7420285 0.5194193 0.30555826
-0.7730309 -0.087070465 0.7739467 0.5129994 0.43386722 -2.2728758 -0.017189661 0.71021736
-0.24243805 -0.014017015 0.74224687 0.4980747 0.6918129 -0.4665764 0.37734783 -0.5329583
0.24652508 0.4862052 -0.7830519 -0.5586005 0.4384538 0.45124644 -1.0596925 0.18404573
0.48151994 0.16005936 -0.5570459 -0.39891437 0.6442065 0.03435497 -0.17790027 0.7908757
-0.0018352318 -0.12996545 -0.5997425 0.42567417 0.324429 0.411372 -0.08122228 -2.1501727
0.6560859 -0.51390326 -0.3247899 0.26600346 -0.4209358 -0.38353246 -0.7890918 0.66174746
-0.6756931 0.0977186 0.24822345 -0.37701997 0.2293481 0.067787744 -0.55512017 -0.07481902
-1.8755776 0.3325431 0.0413969 0.3708269 0.39452967 -0.62572986 0.43902978 -0.5611993
0.62475437 -0.24982987 -0.41099435 -0.1452739 0.7245261 -0.6093762 -0.44923785 0.23547472
0.29926184 -1.0538143 0.31779838 0.05784666 -0.29086518 0.16815901 0.39095432 -0.18407613
-0.60740834 0.5749571 0.2150591 0.24488808 0.70333546 -0.5107815 0.6776356 -0.3377593
-0.03896086 0.49285084 -1.5658987 0.33336374 -0.4814881 -0.24571292 0.15453982 0.118695706
0.671656 0.76833653 -0.5655233 -0.655921 -0.57580906 0.1451766 -0.11600961 -0.27730793
0.49370027 -0.45261353 0.7407469 -2.5781727 0.11655019 0.1451809 -0.15839459 -0.6556446
-0.38052535 -0.29275882 -0.32208917 0.14473875 0.55413073 0.48418224 -0.5813358 0.5253181
0.36565536 -0.1122223 -0.15502995 0.38890564 -1.2710512 -0.7506752 0.35313457 -0.59200704
0.34858897 0.72020257 -0.39800555 0.64793146 -0.5309478 0.57657623 -0.5016509 -0.34339416
-0.71216977 0.66131777 -0.43086004 -0.24367723 0.6176477 -1.415869 -0.18634143 0.4652476
0.6647637 -0.19103059 0.3115041 -0.5960982 0.025173081 -0.21493182 -0.19344783 0.49208552
-0.48360497 -0.24207488 0.036615442 -0.7130063 -0.51868045 0.009488811 -1.4821255 -0.5766374
0.36938313 -0.32102898 0.075778805 -0.23693737 -0.278779 0.7272971 0.63125 -0.17621888
-0.6206017 0.23637475 -0.48061165 0.5536013 -0.3979981 -0.51544756 -0.659642 -1.2574875

bias f4 [16]
00000000: 0000 0080 0000 0080 0000 0080 0000 0080
00000010: 0000 0000 0000 0000 0000 0000 0000 0080
00000020: 0000 0080 0000 0080 0000 0000 0000 0080
00000030: 0000 0080 0000 0000 0000 0080 0000 0080
-0.0 -0.0 -0.0 -0.0 0.0 0.0 0.0 -0.0
-0.0 -0.0 0.0 -0.0 -0.0 0.0 -0.0 -0.0
