lorenz attractor/params/cell_3_params.pth (torch, 3134 bytes, 3 tensors)

kernel f4 [3, 16]
-0.22735596 0.9330294 -0.47703153 -0.9373667 0.0 -0.82119155 0.0 0.0
0.4993415 0.0 0.76731133 -0.64065856 -0.30932885 0.0 0.0 -0.7935472
0.0 0.7672616 0.0 -0.5841603 0.095384836 0.19779968 -0.23515534 0.91726184
-0.37384427 0.96383584 0.06938338 -0.77319884 0.0 0.0 0.0 0.0
0.0 0.0 0.7345507 0.53672194 -0.25152534 0.21896684 0.0 -0.62547815
0.0 0.0 -0.17938703 -0.5716274 0.0 -0.56768656 0.7195513 -0.3559022
00000000: 00d0 68be 04db 6e3f 7a3d f4be 44f7 6fbf
00000010: 0000 0000 9c39 52bf 0000 0000 0000 0000
00000020: b0a9 ff3e 0000 0000 846e 443f 3302 24bf
00000030: 5a60 9ebe 0000 0000 0000 0000 e925 4bbf
00000040: 0000 0000 426b 443f 0000 0000 888b 15bf
00000050: 2059 c33d 008c 4a3e 90cc 70be acd1 6a3f
00000060: 8468 bfbe f2bd 763f e018 8e3d 5cf0 45bf
00000070: 0000 0000 0000 0000 0000 0000 0000 0000
00000080: 0000 0000 0000 0000 840b 3c3f 9c66 093f
00000090: eec7 80be d838 603e 0000 0000 561f 20bf
000000a0: 0000 0000 0000 0000 3cb1 37be 2c56 12bf
000000b0: 0000 0000 e853 11bf 8434 383f d038 b6be

recurrent_kernel f4 [16, 16]
-2.1592646 -0.4911598 0.1803839 0.4938153 0.18220545 -0.7183676 0.11786335 -0.6504792
-0.02955774 0.42009753 -0.04425171 0.42338258 -0.44863445 0.07140912 -0.10728298 0.20498239
0.68643713 -1.7252779 -0.19037472 -0.42051274 -0.54081494 0.2238493 -0.010131497 0.6749374
0.23763366 0.6573111 -0.49150792 0.04631289 -0.55921096 0.7011529 -0.32556516 -0.678028
0.011503707 0.35623553 -2.294119 -0.28179651 0.3147256 0.104409546 -0.65760905 -0.026499944
-0.0528166 0.20544736 0.76919746 -0.7109673 0.35981488 -0.44168723 -0.52757967 -0.3639542
0.6766224 -0.6704216 0.66343737 -1.3354367 0.39768654 0.55946684 -0.28808266 -0.45652896
-0.702534 0.7092024 0.011833701 -0.2776609 -0.019599691 -0.33879423 0.7497138 0.517116
-0.20689714 -0.78119755 0.42762178 -0.38309988 -2.4834156 -0.7221736 0.42483664 0.042877212
-0.32904163 0.10664502 -0.2530184 -0.4694053 -0.32746553 -0.7825658 0.37534863 -0.20579429
-0.6606376 -0.61003035 -0.11713382 -0.036422383 0.037779327 -1.8016285 -0.33694917 -0.114976436
0.3902685 -0.25402215 -0.26094484 0.5574393 0.49015206 0.7461244 -0.3141402 -0.17024833
0.085048884 0.30032364 0.09580812 -0.52816284 0.69477046 -0.7415743 -1.2925744 -0.051078126
-0.34670413 -0.63423103 -0.7709478 -0.3139095 0.21878736 -0.420483 0.68147755 0.50822127
-0.6706366 0.3141345 -0.13280657 0.23567769 -0.07506553 0.4064489 -0.08522159 -2.1861691
0.40175837 -0.07325387 0.2613553 -0.4336034 -0.09940763 -0.20273185 -0.113721006 0.53814197
0.63517284 0.65608025 -0.7129079 -0.6470382 -0.5366916 -0.63952184 -0.44867533 -0.5672198
-1.3940322 0.66000116 -0.19598095 0.37638462 0.5794304 0.7416872 -0.47767818 -0.33607897
-0.6583437 -0.47885847 -0.18184693 -0.30971324 0.21351202 -0.08145403 0.67018855 0.20255134
-0.17324042 -1.5602887 -0.4145464 0.05588461 -0.19118154 0.093762144 -0.7022708 -0.018856945
-0.48856124 -0.47072005 0.37624443 -0.34856755 0.11784366 0.62303334 -0.10885893 -0.024570804
-0.18963182 -0.7789976 -1.5185535 0.24791983 0.034589626 -0.48186976 0.46819675 0.45716834
-0.537957 0.3072709 -0.18352598 -0.3194279 -0.44697404 0.24058095 0.72561973 0.6985963
-0.62654245 -0.4170278 -0.42108712 -1.8386865 0.58694285 -0.4934396 -0.7018522 0.6847305
0.18454006 -0.6863605 0.05462354 -0.41489702 -0.6302816 0.24301328 -0.5282699 -0.58114696
0.31379732 0.044810694 0.7525328 -0.44662777 -2.6852899 -0.41997504 -0.087744474 -0.6280736
-0.74790245 0.6836579 -0.44956052 0.73313445 -0.57434267 0.30721217 -0.39413923 0.5047249
-0.66598856 -0.32739103 -0.60527724 0.0351305 -0.043355964 -1.5444899 -0.48147148 0.26270628
0.28949374 -0.12603985 0.5650308 -0.7653642 0.48620078 0.75434655 0.11414696 0.38270795
0.4665174 -0.21459866 -0.6008749 0.53624296 -0.35257712 -0.17067146 -1.3062996 0.20944922
0.444407 0.30754927 0.3822675 -0.28370333 -0.08216943 -0.4278671 0.086958185 -0.1488115
0.16127051 0.3366571 -0.53595114 -0.75237864 0.423456 0.42945117 -0.00047020774 -2.5518763
00000000: 6431 0ac0 4c79 fbbe 8fb6 383e 5cd5 fc3e
00000010: 1194 3a3e f0e6 37bf 5762 f13d ce85 26bf
00000020: 1323 f2bc 0617 d73e 4841 35bd 9ac5 d83e
00000030: 6ab3 e5be f23e 923d 2eb7 dbbd e7e6 513e
00000040: 58ba 2f3f e8d5 dcbf 97f1 42be 724d d7be
00000050: d972 0abf c038 653e 94fe 25bc b3c8 2c3f
00000060: 3d56 733e 8a45 283f eda6 fbbe 96b2 3d3d
00000070: 7328 0fbf c27e 333f 7ab0 a6be 3e93 2dbf
00000080: 0b7a 3c3c 8164 b63e d8d2 12c0 a247 90be
00000090: b723 a13e acd4 d53d 1159 28bf 6916 d9bc
000000a0: 3856 58bd cb60 523e 20ea 443f f401 36bf
000000b0: a839 b83e d424 e2be 760f 07bf 3458 babe
000000c0: 2037 2d3f c0a0 2bbf 08d7 293f 97ef aabf
000000d0: 929d cb3e 3839 0f3f 927f 93be 2abe e9be
000000e0: 45d9 33bf 4a8e 353f 24e2 413c 9229 8ebe
000000f0: 888f a0bc 7076 adbe 3eed 3f3f b761 043f
00000100: d8dc 53be 90fc 47bf 3ef1 da3e ab25 c4be
00000110: 48f0 1ec0 5ee0 38bf 3084 d93e 04a0 2f3d
00000120: 2578 a8be b468 da3d a18b 81be e455 f0be
00000130: 90a9 a7be 3b56 48bf b22d c03e bdbb 52be
00000140: 8c1f 29bf f32a 1cbf dbe3 efbd a32f 15bd
00000150: 7fbe 1a3d c39b e6bf 9a84 acbe c478 ebbd
00000160: 46d1 c73e 310f 82be 909a 85be 58b4 0e3f
00000170: 36f5 fa3e 0202 3f3f fcd6 a0be 9455 2ebe
00000180: 1c2e ae3d 05c4 993e 0c37 c43d ae35 07bf
00000190: 7adc 313f d0d7 3dbf 1473 a5bf 4c37 51bd
000001a0: 3483 b1be f75c 22bf d65c 45bf bfb8 a0be
000001b0: cb09 603e 8c49 d7be 5075 2e3f ca1a 023f
000001c0: d7ae 2bbf 3dd6 a03e 72fe 07be 7e55 713e
000001d0: f5bb 99bd 121a d03e a888 aebd 32ea 0bc0
000001e0: 46b3 cd3e 2006 96bd 5dd0 853e 4401 debe
000001f0: 3a96 cbbd f098 4fbe 8fe6 e8bd acc3 093f
00000200: b09a 223f e0f4 273f 2281 36bf 4ca4 25bf
00000210: 9f64 09bf b4b7 23bf c6b8 e5be 5135 11bf
00000220: a66f b2bf d6f5 283f 3baf 48be 7cb5 c03e
00000230: 8d55 143f 36df 3d3f 3c92 f4be 8b12 acbe
00000240: 3689 28bf f02c f5be 1536 3abe bc92 9ebe
00000250: e5a2 5a3e 5fd1 a6bd 7a91 2b3f 9e69 4f3e
00000260: f065 31be 8ab7 c7bf 6d3f d4be 43e7 643d
00000270: 18c5 43be 5e06 c03d 05c8 33bf e179 9abc
00000280: b324 fabe 3802 f1be 1ca3 c03e 7277 b2be
00000290: 0458 f13d 1d7f 1f3f 6ef1 debd b648 c9bc
000002a0: d82e 42be 636c 47bf f65f c2bf b2de 7d3e
000002b0: daad 0d3d a2b7 f6be 7cb7 ef3e f811 ea3e
000002c0: 8db7 09bf 9d52 9d3e 3cee 3bbe 0e8c a3be
000002d0: c8d9 e4be da5a 763e 37c2 393f 35d7 323f
000002e0: 1665 20bf ab84 d5be bb98 d7be 145a ebbf
000002f0: e341 163f 1ea4 fcbe 96ac 33bf 804a 2f3f
00000300: 12f8 3c3e 52b5 2fbf efbc 5f3d 626d d4be
00000310: 235a 21bf 79d8 783e b23c 07bf 0cc6 14bf
00000320: 0baa a03e 6b8b 373d fda5 403f 65ac e4be
00000330: cadb 2bc0 f806 d7be 60b3 b3bd 6ec9 20bf
00000340: 8976 3fbf 3404 2f3f cc2c e6be b3ae 3b3f
00000350: 1f08 13bf ea4a 9d3e 9ecc c9be a735 013f
00000360: 3a7e 2abf cc9f a7be 73f3 1abf 00e5 0f3d
00000370: 0696 31bd d8b1 c5bf 6e83 f6be 7081 863e
00000380: 8638 943e 9710 01be dca5 103f e9ee 43bf
00000390: 4fef f83e db1c 413f e2c5 e93d 4cf2 c33e
000003a0: 5edb ee3e c0bf 5bbe f0d2 19bf 3847 093f
000003b0: fd84 b4be 80c4 2ebe d334 a7bf db79 563e
000003c0: 5089 e33e 1977 9d3e 91b8 c33e 9041 91be
000003d0: 7248 a8bd 6611 dbbe 2217 b23d 0b62 18be
000003e0: 1924 253e 525e ac3e 1834 09bf e39b 40bf
000003f0: 3acf d83e 06e1 db3e 3786 f6b9 f151 23c0

bias f4 [16]
0.0 0.0 -0.0 0.0 -0.0 0.0 0.0 -0.0
0.0 0.0 0.0 -0.0 -0.0 0.0 -0.0 0.0
00000000: 0000 0000 0000 0000 0000 0080 0000 0000
00000010: 0000 0080 0000 0000 0000 0000 0000 0080
00000020: 0000 0000 0000 0000 0000 0000 0000 0080
00000030: 0000 0080 0000 0000 0000 0080 0000 0000
