lorenz attractor/params/cell_4_params.pth (torch, 3134 bytes, 3 tensors)

kernel f4 [3, 16]
0	0x00000000	0.0
1	0xbf743b59	-0.9540306
2	0x00000000	0.0
3	0xbddf9e80	-0.10918903
4	0x00000000	0.0
5	0x3ebc6e0c	0.3680271
6	0xbeec61d4	-0.46168387
7	0x00000000	0.0
8	0x3e68f1f8	0.22748554
9	0x3dfe4690	0.124158025
10	0x00000000	0.0
11	0xbec5b380	-0.3861351
12	0xbd805898	-0.06266898
13	0x3ef10968	0.4707749
14	0xbe1b86cc	-0.1518814
15	0x00000000	0.0
16	0x00000000	0.0
17	0x3f60504e	0.87622535
18	0x3f631e80	0.88718414
19	0x3ec8c640	0.39213753
20	0x3e357090	0.1771872
21	0x3f390eca	0.7228819
22	0x00000000	0.0
23	0x00000000	0.0
24	0x3f7c89c2	0.986477
25	0x3b7bac00	0.003840208
26	0xbea85254	-0.3287531
27	0x00000000	0.0
28	0x00000000	0.0
29	0x3f53a6a4	0.8267615
30	0x00000000	0.0
31	0x3f790de4	0.9728682
32	0x3f76c2a2	0.96390736
33	0xbf12efec	-0.5739734
34	0x3f4121e2	0.75442326
35	0xbf64ab59	-0.89323956
36	0x00000000	0.0
37	0x00000000	0.0
38	0xbb018700	-0.0019764304
39	0x3f0fdc52	0.5619556
40	0x00000000	0.0
41	0x00000000	0.0
42	0x3f1a25d4	0.6021397
43	0x3e6470c8	0.22308648
44	0x00000000	0.0
45	0x00000000	0.0
46	0xbf0f9b96	-0.5609678
47	0xbf27ae32	-0.65500176

recurrent_kernel f4 [16, 16]
0	0xbf84ce7f	-1.0375518
1	0x3f428ed2	0.75999177
2	0x3f0516f8	0.5198817
3	0x3ed489d8	0.41511416
4	0xbd8ca0ed	-0.06866632
5	0xbe6d252d	-0.23158713
6	0xbe912668	-0.28349614
7	0x3e97fd44	0.29685414
8	0x3f45bb82	0.7723924
9	0x3e9c2f65	0.3050491
10	0xbefd89de	-0.49519247
11	0x3ebda5c9	0.37040547
12	0x3dd23ccc	0.10265502
13	0x3e09e41d	0.13465925
14	0x3b02ff58	0.0019988623
15	0xbef66cf2	-0.48129994
16	0x3ee357d0	0.44402933
17	0xc00fb1a0	-2.2452164
18	0xbe229948	-0.15878785
19	0xbf181fd5	-0.5942357
20	0x3e795c52	0.24351624
21	0xbf3792dd	-0.7170847
22	0x3ef2d55f	0.47428414
23	0xbe2bf5b0	-0.16792941
24	0x3ddf545c	0.10904762
25	0xbf09ab05	-0.5377658
26	0xbf0613ef	-0.52374166
27	0x3d783e62	0.060606368
28	0xbe8abe62	-0.27098376
29	0x3e000a33	0.1250389
30	0xbf1ae2c9	-0.60502297
31	0x3f34f13f	0.7068061
32	0xbe8d8d57	-0.27646896
33	0xbf2760b5	-0.6538194
34	0xc00d86a2	-2.2113423
35	0xbcce09e2	-0.025151197
36	0x3e11db57	0.14243828
37	0xbd2e1d0b	-0.042508166
38	0xbf1b085e	-0.6055964
39	0xbf233003	-0.63745135
40	0x3f14705c	0.57983947
41	0x3ed2de02	0.41185004
42	0xbe09b81c	-0.13449138
43	0x3eed6859	0.46368673
44	0x3e180a4a	0.14847675
45	0xbf084911	-0.5323649
46	0x3f19fefc	0.601547
47	0x3eea44a9	0.4575551
48	0x3e9ac7e5	0.30230632
49	0xbf20e0e7	-0.62843174
50	0xbf4a9f35	-0.7914918
51	0xbfb8cb26	-1.4436996
52	0xbf0273b0	-0.50957775
53	0xbe594f8c	-0.21221751
54	0xbf0063b4	-0.50152135
55	0x3deb94dd	0.11503003
56	0xbed20db2	-0.41026074
57	0x3e851c26	0.25998038
58	0xbe040ccc	-0.12895507
59	0x3f34c6cb	0.70615834
60	0xbe88ce36	-0.26719826
61	0xbee94c2c	-0.45565927
62	0xbed1f628	-0.41008115
63	0x3f034c94	0.51288724
64	0x3d5c045f	0.053715106
65	0x3e76e3d9	0.24110354
66	0x3f33a3d4	0.70171857
67	0x3f2fdfda	0.68700945
68	0xc019ead5	-2.404958
69	0xbd5ba7b7	-0.053626742
70	0x3f0a7117	0.5407881
71	0xbe6807fc	-0.22659296
72	0x3f0667bf	0.52502054
73	0x3c800c69	0.015630918
74	0x3d3e1634	0.046407893
75	0x3f17e0d6	0.5932745
76	0x3ec18472	0.3779636
77	0x3e222703	0.15835194
78	0x3f3e991c	0.74452376
79	0xbf05f070	-0.52320004
80	0x3da1e0dc	0.07904217
81	0x3ec77a99	0.38960722
82	0x3ea140b2	0.3149467
83	0x3eedab9c	0.4641999
84	0xbeb4d7bd	-0.35320845
85	0xc0079fe0	-2.119133
86	0x3de04466	0.10950546
87	0xbf061f14	-0.5239117
88	0x3f35080b	0.707154
89	0xbf408822	-0.7520772
90	0x3d58b010	0.05290228
91	0xbf401b9a	-0.75042117
92	0xbd1a12ca	-0.037615575
93	0xbf15e303	-0.5854952
94	0xbf4d730b	-0.80253667
95	0x3ea2056b	0.3164476
96	0x3ee36309	0.44411495
97	0xbd8b4c0b	-0.068016134
98	0x3f498b4f	0.78728193
99	0xbe90b63a	-0.28264028
100	0xbe789cbf	-0.24278544
101	0x3f490de6	0.7853683
102	0xc0182d06	-2.377748
103	0x3f178b51	0.59196955
104	0xbf0d5ba3	-0.5521795
105	0x3e839c11	0.25705007
106	0xbc027e82	-0.007964732
107	0xbed18da9	-0.4092839
108	0xbf21c794	-0.6319516
109	0xbf3dc108	-0.7412267
110	0x3f069327	0.52568287
111	0x3e35a2d6	0.17737898
112	0xbf3516f1	-0.7073813
113	0xbf395aba	-0.7240406
114	0x3f33824b	0.70120686
115	0x3f3d3449	0.73907906
116	0x3f20a53d	0.62752134
117	0x3f328f22	0.69749653
118	0xbeb11dd2	-0.34593064
119	0xc00367ba	-2.053206
120	0x3f0b407a	0.5439526
121	0xbecb05b8	-0.396528
122	0xbe49fdfe	-0.19725797
123	0x3f06d4dc	0.5266855
124	0x3f321eb1	0.6957808
125	0xbf03e2b0	-0.5151777
126	0x3f1f099c	0.6212404
127	0xbe4c9bcf	-0.19981311
128	0x3f2d9e67	0.6781983
129	0xbc188d9d	-0.009311107
130	0xbf12b8d3	-0.5731327
131	0x3f227a92	0.6346828
132	0x3ed81018	0.4219978
133	0x3daa4ee0	0.083158255
134	0x3ea6e5d3	0.32597217
135	0x3e9d958e	0.30778164
136	0xbfa0a091	-1.2549001
137	0x3ce63779	0.028102623
138	0xbf35c5c0	-0.7100487
139	0x3f168ed7	0.58811706
140	0xbe8ac728	-0.2710507
141	0xbeedb0be	-0.46423906
142	0x3f2e4faa	0.6809031
143	0x3e24e16f	0.16101621
144	0x3f31dfcc	0.6948211
145	0x3f26066c	0.6485355
146	0xbf093b3a	-0.53606
147	0x3f2d3e00	0.6767273
148	0xb9d1b622	-0.00039999286
149	0x3f27820e	0.6543282
150	0xbf3be3ec	-0.73394656
151	0xbf255a9c	-0.64591384
152	0xbf2fab3e	-0.6862067
153	0xc00920bc	-2.142623
154	0xbeb74cbc	-0.3580073
155	0xbe02a8a3	-0.12759642
156	0xbd9514b2	-0.07279338
157	0xbdf6b4af	-0.120461814
158	0x3e50d031	0.20391919
159	0xbe94cdf4	-0.2906338
160	0x3e1bc8fa	0.15213385
161	0x3ec7bea0	0.39012623
162	0x3dcc6ccb	0.09981688
163	0x3f43aedd	0.76438695
164	0xbe6f019c	-0.23340458
165	0x3e6eb810	0.23312402
166	0x3e8e51d3	0.27796802
167	0xbd562890	-0.052284777
168	0xbeb05f40	-0.3444767
169	0xbd93ae8c	-0.072110265
170	0xbf8c9db2	-1.0985625
171	0xbea564c2	-0.32303435
172	0x3f0401c9	0.51565224
173	0xbe40ff39	-0.1884736
174	0x3e7d0790	0.24709916
175	0xbd57da1a	-0.052698232
176	0xbf4b3cda	-0.7938973
177	0x3e77db2b	0.242047
178	0xbce94455	-0.028474966
179	0xbf1c7328	-0.61113214
180	0xbd8ff63f	-0.070293896
181	0xbe24682a	-0.1605536
182	0x3c9f9954	0.019482292
183	0xbf2aba23	-0.6669027
184	0xbeb7e116	-0.35913914
185	0x3eebf02a	0.46081668
186	0x3d5ed88d	0.054405738
187	0xbfe584a9	-1.793111
188	0xbf20bd07	-0.6278843
189	0xbf237f1f	-0.63865846
190	0xbf2e05f7	-0.6797785
191	0xbe7ca1f0	-0.24671149
192	0xbe4b39c7	-0.19846259
193	0xbf4a306e	-0.7898015
194	0xbd3a57b6	-0.045493804
195	0x3f3b1414	0.7307751
196	0xbe89cc08	-0.26913476
197	0x3e3d57f6	0.18490586
198	0x3df2adb2	0.11849536
199	0x3f1d8f83	0.61547107
200	0xbe3ee526	-0.186421
201	0xbf407f4d	-0.75194246
202	0xbece59ab	-0.40302786
203	0x3f4c18d6	0.79725397
204	0xbff90fdd	-1.9457966
205	0x3ed0910c	0.40735662
206	0xbe001f3e	-0.12511918
207	0x3eb43c2c	0.35202157
208	0x3e0e9afa	0.13926306
209	0xbe8076ba	-0.2509058
210	0xbf096b15	-0.5367902
211	0x3f1dab4b	0.615895
212	0xbed9c25a	-0.4253109
213	0x3f31a4ce	0.69392097
214	0x3f196ba6	0.59929883
215	0xbee0f02f	-0.43933246
216	0xbf4d697d	-0.8023909
217	0x3cbfcd13	0.023413217
218	0xbf0f3f12	-0.5595561
219	0x3ee6d0f6	0.450813
220	0xbf05e7a8	-0.52306604
221	0xbff5c157	-1.9199628
222	0xbeb255b7	-0.3483102
223	0x3eb9ad16	0.36264867
224	0x3e0bb9c8	0.13645089
225	0x3eadbfdc	0.3393544
226	0xbf1f1dc9	-0.62154824
227	0xbe5b87c4	-0.21438509
228	0x3e4b867b	0.19875519
229	0x3e672b61	0.22575141
230	0x3d8a0871	0.06739891
231	0x3d071806	0.032981895
232	0x3f177a97	0.5917143
233	0x3f30c1a7	0.6904549
234	0x3bc086ca	0.005875443
235	0x3d529339	0.051409934
236	0xbef529ee	-0.47883552
237	0xbead6bdc	-0.33871353
238	0xc0066d68	-2.1004276
239	0x3d18d713	0.037314486
240	0xbe1a763e	-0.15084168
241	0x3f092cc8	0.53583956
242	0x3ee3ac48	0.44467378
243	0x3e5f6e90	0.2181952
244	0xbd7dedfa	-0.06199453
245	0xbed40a62	-0.4141417
246	0xbce0149c	-0.027353577
247	0xbf1023c0	-0.5630455
248	0xbf079a86	-0.5297016
249	0xbe1e7833	-0.1547554
250	0xbe4c0b9a	-0.199263
251	0x3f1674d9	0.58772045
252	0x3d3f9984	0.046777263
253	0xbf1ee784	-0.62072015
254	0x3ebe8f0a	0.37218505
255	0xbffd0e08	-1.9769907

bias f4 [16]
0	0x00000000	0.0
1	0x00000000	0.0
2	0x00000000	0.0
3	0x80000000	-0.0
4	0x00000000	0.0
5	0x00000000	0.0
6	0x00000000	0.0
7	0x00000000	0.0
8	0x80000000	-0.0
9	0x00000000	0.0
10	0x80000000	-0.0
11	0x00000000	0.0
12	0x80000000	-0.0
13	0x00000000	0.0
14	0x80000000	-0.0
15	0x00000000	0.0
