lorenz attractor/params/cell_6_params.pth (torch, 3134 bytes, 3 tensors)

kernel f4 [3, 16]
000000 c0 f2 98 3c b8 95 65 3e ac 1e c6 be 50 16 a4 bd
       0.01867044 0.22420394 -0.38695276 -0.08012068
000010 00 00 00 00 00 00 00 00 00 00 00 00 00 00 00 00
       0.0 0.0 0.0 0.0
000020 2c 67 06 be f0 81 d0 3e 00 00 00 00 94 f0 d4 3e
       -0.13125294 0.40724134 0.0 0.41589797
000030 80 33 2d bd 00 00 00 00 48 a0 a1 bd b6 24 47 3f
       -0.042285442 0.0 -0.07891899 0.7779039
000040 70 4d a8 be 60 54 4f 3e 00 00 00 00 1c d9 08 bf
       -0.3287158 0.2024703 0.0 -0.5345628
000050 ae aa 03 3f d6 10 72 3f 40 8a 0b bf 3f eb 77 bf
       0.5143231 0.9455694 -0.5450783 -0.9684333
000060 00 00 00 00 00 00 00 00 00 00 00 00 00 00 00 00
       0.0 0.0 0.0 0.0
000070 00 52 f3 bd d2 e9 54 bf 76 ba d0 be 00 00 00 00
       -0.11880875 -0.8316928 -0.40767258 0.0
000080 00 00 00 00 46 5e 4b 3f 98 4f 02 bf b6 16 03 bf
       0.0 0.79440725 -0.509027 -0.5120653
000090 00 00 00 00 00 00 00 00 3e 65 3d bf 4a e8 29 bf
       0.0 0.0 -0.7398261 -0.6637007
0000a0 00 00 00 00 4e 10 3d 3f 00 00 00 00 3e b5 01 bf
       0.0 0.73853004 0.0 -0.5066718
0000b0 30 67 61 bf 00 00 00 00 55 57 7a bf f0 c4 60 be
       -0.88048077 0.0 -0.9778951 -0.21950126

recurrent_kernel f4 [16, 16]
000000 a9 8f 1e c0 fe c9 6c be 62 92 05 bf 3b c8 21 bf
       -2.4775183 -0.23123929 -0.5217649 -0.6319615
000010 da 67 a9 bc fd 72 cf be 44 90 6a be 17 95 d5 be
       -0.020679403 -0.40517417 -0.22906595 -0.4171531
000020 03 6f 21 bf db e2 d1 bd 8b a4 10 3f 51 f9 b5 bd
       -0.63060015 -0.10248347 0.5650107 -0.08885444
000030 f3 15 c3 be cf 03 87 3d 9b 08 de be 8c 9e 36 3f
       -0.38102683 0.06592523 -0.4336594 0.71335673
000040 81 87 3a bf e4 11 31 c0 5f 99 0c 3c 04 b4 34 3e
       -0.7286301 -2.766717 0.008581488 0.17646796
000050 37 cf 40 bf d6 23 43 bf ea 73 2b bf fc 3b 40 3f
       -0.75316185 -0.76226556 -0.66973746 0.7509153
000060 92 5e 07 3f 16 cb d2 3e 3b fa a5 3d ce 95 09 bf
       0.5287868 0.41170567 0.08104368 -0.5374421
000070 3c 7b 50 3c 34 96 9d 3e 01 de a1 3d 9a 4c c9 bc
       0.012724694 0.30778658 0.07903672 -0.02457266
000080 c7 f5 4f 3e e2 f2 ca bd 00 aa 2d c0 60 0c f5 3e
       0.203086 -0.099096075 -2.713501 0.47861004
000090 03 0e 17 bf 93 2f b0 3e de f2 be 3e 96 88 c5 3e
       -0.59005755 0.34411296 0.37294668 0.3858077
0000a0 4d d9 ca 3e 73 80 8f be 00 8d 0e bf 28 77 af 3e
       0.39618912 -0.28027686 -0.556839 0.34270597
0000b0 9f bb 39 3f 7a fd 8d 3e 0a f8 e3 3e ff ce 82 3e
       0.7255191 0.2773245 0.44525176 0.2554855
0000c0 be 13 da 3d df 6e 28 3f b0 72 cc be 9d c7 24 c0
       0.10648297 0.65794176 -0.3993125 -2.5746834
0000d0 44 92 ba be 38 0a a6 be 84 ac d0 be f7 ed 1b 3f
       -0.36439717 -0.3242967 -0.4075662 0.6090998
0000e0 20 0d bb be e6 4d 18 3d 84 38 26 3f d0 b2 eb be
       -0.3653345 0.037183665 0.64929986 -0.4603486
0000f0 36 99 76 be 61 5b 37 3e a3 da 1e 3f 52 4a aa be
       -0.24081883 0.17905952 0.62052363 -0.33259827
000100 db 00 10 be ae 47 f0 3e 26 e6 c7 bc 6c e1 db be
       -0.14062826 0.46929687 -0.024401736 -0.4294542
000110 6a 1f c1 bf c9 6f 78 3d 10 5e 49 3e 64 40 d3 bd
       -1.5087712 0.06065348 0.19664788 -0.10315016
000120 e2 aa 02 bf 04 6f ed 3d 58 a6 79 3d c2 0b 08 bd
       -0.51041996 0.1159344 0.060949653 -0.033214338
000130 80 2c 39 bf 6e 85 84 be 5e 21 0b 3e 31 0c 82 bd
       -0.72333527 -0.2588305 0.13586947 -0.063499816
000140 75 64 84 3b fd ea 18 3f 8d 96 98 3d b3 e3 23 be
       0.0040402957 0.59733564 0.0745059 -0.16004829
000150 e1 04 21 3f f2 68 cc bf b8 a4 25 be 07 e2 14 bf
       0.6289807 -1.5969527 -0.16176116 -0.5815739
000160 5a 79 2f bf b4 fe 34 3f 0a c3 36 bf c5 01 3f bf
       -0.6854454 0.70701146 -0.71391356 -0.74612075
000170 46 8a 08 be 4e b6 42 bf 3b 03 09 bf 44 25 30 be
       -0.13333997 -0.76059425 -0.53520554 -0.17201716
000180 e2 4e 95 be f9 4b e3 3d 76 b1 22 3f 9d 71 29 3f
       -0.29161745 0.11098475 0.63552034 0.66188985
000190 b0 75 30 be b0 24 d1 be f4 cd bf bf ec 29 e7 3e
       -0.17232394 -0.40848303 -1.4984727 0.4514917
0001a0 40 47 24 bf 8c 2b 38 3f dd 5c 72 be 62 0f ea be
       -0.6417122 0.7194145 -0.23668237 -0.4571486
0001b0 64 ba fe 3c 63 8e 0a 3f 00 b5 1c bf ff 47 37 bf
       0.031094737 0.54123515 -0.61213684 -0.7159423
0001c0 db ca 82 3e c8 f8 f9 3c 22 2c f8 be 0a e1 eb 3e
       0.2554539 0.030514136 -0.4847117 0.4607013
0001d0 1c 1f 63 3e 99 64 1e bf b8 dd 81 be a9 86 f2 bf
       0.22179836 -0.6187225 -0.2536447 -1.8947345
0001e0 33 21 18 3f af c2 12 3d 8c f4 5a be c1 18 ef 3e
       0.5942566 0.035830196 -0.2138235 0.46698573
0001f0 07 c7 39 bf 10 6e b5 3e d2 2f 10 3f c3 3b ca be
       -0.72569317 0.35435534 0.5632297 -0.3949872
000200 c0 75 94 bb 3c 67 5f 3d 22 06 1a 3f 04 77 1a 3f
       -0.0045306385 0.05454181 0.6016561 0.60337853
000210 8e e6 33 bf d2 13 33 3e d8 4a a1 3e cd 3b 07 be
       -0.70273674 0.1748803 0.31502414 -0.13206406
000220 8e 86 29 c0 65 ab 15 3f d7 24 28 be a4 f3 bf 3a
       -2.6488376 0.5846465 -0.16420303 0.0014644754
000230 60 7e 02 3f aa ba 44 be 28 d7 1d bf d2 14 83 3e
       0.5097408 -0.19211832 -0.6165643 0.25601822
000240 46 1b 9a be bd b1 0a 3f 40 af 29 3f 32 d2 1a bc
       -0.30098933 0.5417746 0.66283035 -0.0094495285
000250 bb 45 25 bf 3e 2e 91 be ae 67 cf 3e 3c e3 46 be
       -0.64559525 -0.28355592 0.4050879 -0.1942262
000260 00 4b 2d 3f 56 68 23 c0 c2 5b 42 be 99 5a 2c be
       0.67692566 -2.5532432 -0.18980315 -0.16831435
000270 61 35 62 3d ea 5a 94 be d7 43 ea be eb 53 6d be
       0.055226687 -0.28975612 -0.45754883 -0.23176543
000280 19 39 a9 3d e4 f8 e4 bd e0 db 00 be 52 6c ca be
       0.08262844 -0.111802846 -0.12583876 -0.39535767
000290 60 b8 f4 be 45 d3 56 be 02 b1 b5 be b8 ba 7d 3e
       -0.47796917 -0.2097903 -0.3548661 0.24778259
0002a0 b9 53 a6 3e 2f 26 fa 3e 4b c0 e9 bf 7c a8 11 bf
       0.3248575 0.48857257 -1.8261808 -0.5689771
0002b0 a7 cf 2f 3f 3e 82 06 3f 63 36 0f bb 39 df 2f 3f
       0.6867623 0.52542484 -0.0021852485 0.68699986
0002c0 64 07 2f bf a5 c3 30 3f 78 dc 89 bd df 1e d9 be
       -0.6837065 0.6904853 -0.06731504 -0.42406365
0002d0 5f 44 97 bb 18 99 b1 3d d9 11 b1 3e 7a fd 38 be
       -0.0046163048 0.086717784 0.3458393 -0.18065444
0002e0 dc db 8c be 4c 6b 0d 3f a5 0c f2 be a1 f8 b0 bf
       -0.2751149 0.5524185 -0.47275272 -1.3825876
0002f0 b2 67 a2 3e 6c f5 d9 3e bf 1f 24 bf 9c 79 7e 3d
       0.31719738 0.42570055 -0.6411094 0.062127694
000300 84 1e 07 3f c6 02 00 bf f5 e8 e9 3e 03 3e 30 bf
       0.5278094 -0.5000423 0.45685545 -0.6884462
000310 5c 79 02 3f 84 ac d2 be 7e f1 02 3f 59 bb fe bc
       0.5096643 -0.41147244 0.5114974 -0.031095194
000320 c4 4d 2f 3f b0 24 e6 be a3 68 ac 3e 17 4b 05 bf
       0.68478036 -0.44949865 0.3367358 -0.52067703
000330 46 36 bf bf 12 5c 00 bf c6 56 2b 3f 21 67 5a be
       -1.4938438 -0.5014049 0.6692928 -0.21328403
000340 c1 20 33 bf 0e 52 39 3f f6 74 03 be a1 af ae be
       -0.69971853 0.7239083 -0.12837586 -0.3411837
000350 d4 9a 08 3f 63 35 18 bf a7 a0 56 3e e4 28 b8 bd
       0.5336125 -0.5945646 0.20959722 -0.08992174
000360 a4 f2 39 3f af e1 d7 3c f7 43 34 bf 1a d9 bb 3e
       0.72635865 0.026352732 -0.70416206 0.36689073
000370 b1 d6 24 bf dd 04 c3 bf 8e ec 6a 3e bb 73 00 be
       -0.64390093 -1.5235859 0.22941801 -0.12544148
000380 d6 08 a3 3e 6d 58 fe be 27 03 9a be f6 c9 d2 be
       0.3184268 -0.4967684 -0.3008053 -0.4116971
000390 2b ff 37 3f 01 78 93 3e a0 6e 3a 3f 45 af 9e 3e
       0.7187373 0.28802493 0.7282505 0.30993095
0003a0 aa 56 3f bf e5 25 02 3f 1d 06 b5 be 50 40 1d 3e
       -0.74741614 0.5083907 -0.35356227 0.15356565
0003b0 ce e0 20 3f 29 bb 3c bd fc 74 2c c0 40 8f 9d 3e
       0.62843025 -0.046076927 -2.6946402 0.30773354
0003c0 de 81 f8 3e 7e d1 d0 be 29 1d ba 3e 9c a3 a7 bd
       0.4853658 -0.4078483 0.36350372 -0.08185503
0003d0 97 5d 20 bf 0a 7d 8e 3e f5 c2 40 bf 86 57 34 3f
       -0.62642807 0.27829772 -0.7529748 0.7044605
0003e0 0f 9d 3c be 50 6d 23 bf 10 9f 2c bf a6 7a 90 be
       -0.18419288 -0.6383867 -0.6743021 -0.28218573
0003f0 35 1a 82 3e a0 4e 09 bd d0 0f 24 3f 25 3b 33 c0
       0.2541062 -0.03352225 0.6408663 -2.800485

bias f4 [16]
000000 00 00 00 00 00 00 00 00 00 00 00 00 00 00 00 00
       0.0 0.0 0.0 0.0
000010 00 00 00 80 00 00 00 80 00 00 00 80 00 00 00 80
       -0.0 -0.0 -0.0 -0.0
000020 00 00 00 00 00 00 00 00 00 00 00 00 00 00 00 00
       0.0 0.0 0.0 0.0
000030 00 00 00 80 00 00 00 00 00 00 00 80 00 00 00 00
       -0.0 0.0 -0.0 0.0
