lorenz attractor/params/cell_9_params.pth (torch, 3134 bytes, 3 tensors)

kernel f4 [3, 16]
-0.67220294 0.0 0.15354538 0.0 0.025015354 -0.63634014 0.0 -0.37341148
0.0 0.63278985 -0.58536285 -0.04152888 0.0 0.27797115 -0.7513946 0.0
0.84281325 0.64836705 0.6632136 0.0 0.17966032 -0.87088466 0.0 0.0
0.0 0.31915307 -0.13372517 0.09873021 -0.9663705 0.21212947 0.0 0.0
0.06393278 -0.9370596 -0.53373444 0.462942 0.0 0.0 -0.42815667 0.0
0.0 0.0 0.0 0.051253438 0.43797517 0.25219905 -0.2768612 -0.39220893
00000000: 7e15 2cbf 0000 0000 003b 1d3e 0000 0000
00000010: 00ed cc3c 30e7 22bf 0000 0000 ca2f bfbe
00000020: 0000 0000 84fe 213f 57da 15bf 301a 2abd
00000030: 0000 0000 3c52 8e3e 665b 40bf 0000 0000
00000040: 9cc2 573f 62fb 253f 5ec8 293f 0000 0000
00000050: e0f8 373e 4cf2 5ebf 0000 0000 0000 0000
00000060: 0000 0000 0868 a33e 40ef 08be 1033 ca3d
00000070: 0f64 77bf 7838 593e 0000 0000 0000 0000
00000080: 30ef 823d 23e3 6fbf d2a2 08bf bc06 ed3e
00000090: 0000 0000 0000 0000 5a37 dbbe 0000 0000
000000a0: 0000 0000 0000 0000 0000 0000 20ef 513d
000000b0: 483e e03e 3c20 813e c0c0 8dbe 9ccf c8be

recurrent_kernel f4 [16, 16]
-2.064776 -0.5345559 -0.75152457 -0.48150092 -0.82786673 0.55323607 0.19603372 -0.7032039
0.3275058 0.7489885 -0.61890304 0.71438104 -0.5033143 0.81236625 -0.41097537 0.45749408
0.12205349 -1.906594 -0.64286655 0.03831064 0.6203074 0.742883 -0.23751977 -0.2556182
0.19265787 0.46192598 -0.14622258 0.5222632 0.6179193 0.25508758 0.7882948 -0.7819005
0.7859825 0.25354925 -1.9685012 0.19940811 0.42919767 0.8319446 -0.6858877 0.58736277
-0.4612374 0.19936153 -0.5552365 -0.27401236 0.44087404 0.21027544 0.548933 -0.57540756
0.79394853 -0.8020525 0.094056465 -1.4195609 -0.23011562 -0.6211766 0.79146516 0.061432287
-0.44377849 0.28378415 -0.29148945 0.05460005 -0.6544053 -0.007955077 -0.5605375 0.38946146
-0.006561777 -0.37417608 -0.07410332 -0.39498216 -1.6098523 0.8132446 -0.17179948 -0.67112917
0.30891317 -0.5253808 -0.15595035 0.5864398 -0.80792713 0.7408781 -0.44588113 0.008215085
-0.37829256 0.38627115 0.052202847 0.24037263 -0.75482905 -1.4621979 0.58721614 0.6652633
-0.4611199 -0.24645993 0.61404335 0.12465965 0.12593451 0.09077197 0.019260611 0.674325
-0.13551879 0.044705678 0.7817484 0.24955435 0.598031 0.35717237 -0.8108115 0.26611972
-0.7928547 0.09718173 0.096320815 0.21682218 -0.06768601 -0.27393323 0.6545942 -0.72767746
0.18853664 0.49464005 0.84966624 -0.1586576 -0.4046263 -0.1562468 -0.27764687 -0.6577933
0.52085894 0.5508153 -0.088245936 -0.56764936 -0.28382936 0.05976893 -0.74343276 0.44974583
0.5999638 -0.67296004 -0.18790604 0.6770596 -0.5807411 -0.30711803 -0.4791119 0.40881988
-1.7280728 0.1916074 0.84067655 -0.3576791 0.22660553 0.14961281 0.62490904 -0.72254634
0.19237292 -0.010432959 -0.81245536 0.10478069 -0.55491 0.3707027 0.28301132 -0.4640444
0.2777315 -1.5647465 0.55984825 -0.57468647 0.73994815 -0.15168785 -0.14236712 0.3810297
-0.6599641 0.2164677 -0.7518921 -0.30819455 0.047964286 0.10473005 -0.648084 -0.8473662
-0.76811486 -0.42592353 -0.5552989 -0.13800257 0.5855123 -0.43624017 0.5258713 -0.62673324
-0.3405516 -0.15336268 0.7094133 0.3760324 0.5037747 -0.5668276 0.6406682 0.61838007
-0.0056179576 0.738845 0.5598091 -2.1278543 0.37599224 -0.653781 0.45462397 0.20787692
-0.23734087 0.7329845 0.32568538 0.58983105 -0.25291362 0.62623084 0.43898597 0.28322122
0.28894663 -0.1448275 -0.25485283 -0.004272812 -1.1136812 0.40782717 -0.40739387 0.6080108
0.10130967 -0.020645034 -0.830512 -0.7846066 0.646384 -0.6461215 0.76524585 0.70553076
0.83881366 0.25832486 0.6383553 -0.45761493 0.7222978 -1.2945151 0.52317077 0.8088896
-0.8306413 0.6310541 0.14698768 -0.007749264 -0.4651579 -0.18575527 -0.77876574 0.557773
0.003586412 0.17177166 0.0018624701 -0.11763231 0.12605052 0.19080687 -1.7061788 0.6009
-0.6030436 0.45256114 0.0031332774 0.41721743 -0.82318425 0.39155096 -0.68247944 -0.46484923
-0.119907066 0.71360314 -0.7326246 -0.56647474 -0.79386765 -0.54597145 -0.23649676 -1.1114103
00000000: 4a25 04c0 a8d8 08bf ea63 40bf 4a87 f6be
00000010: 13ef 53bf e1a0 0d3f 10bd 483e 2c05 34bf
00000020: d7ae a73e b6bd 3f3f 6e70 1ebf ade1 363f
00000030: 35d9 00bf 3cf7 4f3f 5d6b d2be aa3c ea3e
00000040: 2ef7 f93d 460b f4bf e792 24bf 9eeb 1c3d
00000050: 77cc 1e3f 952d 3e3f 6238 73be 64e0 82be
00000060: 1b48 453e 9081 ec3e 5fbb 15be 0bb3 053f
00000070: f62f 1e3f d79a 823e b0cd 493f a22a 48bf
00000080: 2636 493f 35d1 813e d9f7 fbbf a431 4c3e
00000090: ccbf db3e 52fa 543f 5696 2fbf 685d 163f
000000a0: 4f27 ecbe 6e25 4c3e fb23 0ebf 594b 8cbe
000000b0: 3eba e13e 7252 573e e086 0c3f e94d 13bf
000000c0: 3640 4b3f 5053 4dbf ada0 c03d 2cb4 b5bf
000000d0: 6ea3 6bbe 6e05 1fbf 769d 4a3f 6ca0 7b3d
000000e0: ef36 e3be 284c 913e 1b3e 95be 4da4 5f3d
000000f0: 1b87 27bf 0356 02bc 637f 0fbf 7e67 c73e
00000100: 2d04 d7bb 0294 bfbe 7bc3 97bd 1a3b cabe
00000110: a40f cebf cc30 503f 34ec 2fbe 1fcf 2bbf
00000120: de29 9e3e 5b7f 06bf 73b1 1fbe eb20 163f
00000130: 50d4 4ebf 30aa 3d3f 884a e4be 9098 063c
00000140: 90af c1be 55c5 c53e a7d2 553d 3e24 763e
00000150: 7a3c 41bf 4d29 bbbf cc53 163f b24e 2a3f
00000160: e817 ecbe fe5f 7cbe f231 1d3f 8f4d ff3d
00000170: faf4 003e a8e6 b93d 6ec8 9d3c 90a0 2c3f
00000180: 70c5 0abe 4d1d 373d aa20 483f 2d8b 7f3e
00000190: 8f18 193f 4cdf b63e 5891 4fbf d840 883e
000001a0: 87f8 4abf 3707 c73d d943 c53d a206 5e3e
000001b0: f69e 8abd fa40 8cbe 7c93 273f 1249 3abf
000001c0: c00f 413e 7641 fd3e ba83 593f 2377 22be
000001d0: 2e2b cfbe 29ff 1fbe bb27 8ebe 2465 28bf
000001e0: 0357 053f 3b02 0d3f 49ba b4bd 7851 11bf
000001f0: 1552 91be 44d0 743d 9c51 3ebf 1645 e63e
00000200: 3a97 193f 1c47 2cbf 716a 40be c753 2d3f
00000210: 73ab 14bf 933e 9dbe 284e f5be d750 d13e
00000220: 7d31 ddbf bb34 443e 9436 573f b721 b7be
00000230: 480b 683e 1a34 193e 0afa 1f3f ccf8 38bf
00000240: 68fd 443e 00ef 2abc 13fd 4fbf 4297 d63d
00000250: 950e 0ebf bfcc bd3e dce6 903e 3a97 edbe
00000260: d332 8e3e 9d49 c8bf 3752 0f3f a71e 13bf
00000270: 3e6d 3d3f 0f54 1bbe b0c8 11be 5316 c33e
00000280: 68f3 28bf b5a9 5d3e 007c 40bf adcb 9dbe
00000290: 3376 443d b57c d63d d5e8 25bf feec 58bf
000002a0: 2da3 44bf a612 dabe 1228 0ebf 8c50 0dbe
000002b0: 22e4 153f df5a dfbe 809f 063f 9771 20bf
000002c0: c85c aebe 1b0b 1dbe 1c9c 353f 5287 c03e
000002d0: 61f7 003f 9d1b 11bf d502 243f 284e 1e3f
000002e0: d816 b8bb f224 3d3f a64f 0f3f c42e 08c0
000002f0: 0e82 c03e 315e 27bf 79c4 e83e b0dd 543e
00000300: 7c09 73be dfa4 3b3f 3cc0 a63e 2bff 163f
00000310: e57d 81be aa50 203f c5c2 e03e 5f02 913e
00000320: d0f0 933e a94d 14be 127c 82be f202 8cbb
00000330: 1b8d 8ebf b9ce d03e ee95 d0be 99a6 1b3f
00000340: 727b cf3d c61f a9bc 6f9c 54bf fadb 48bf
00000350: 6c79 253f 3868 25bf 27e7 433f aa9d 343f
00000360: 7ebc 563f 2843 843e 416b 233f 814c eabe
00000370: 82e8 383f acb2 a5bf 85ee 053f 6413 4f3f
00000380: e9a4 54bf c38c 213f f083 163e 8aed fdbb
00000390: 2d29 eebe a136 3ebe 315d 47bf 36ca 0e3f
000003a0: 020a 6b3b e9e4 2f3e 201e f43a 35e9 f0bd
000003b0: 6313 013e e062 433e 1164 dabf 95d4 193f
000003c0: 1161 1abf 18b6 e73e ac57 4d3b 869d d53e
000003d0: 34bc 52bf 5e79 c83e f9b6 2ebf b800 eebe
000003e0: d691 f5bd b2ae 363f 498d 3bbf 7d04 11bf
000003f0: e93a 4bbf c9c4 0bbf 352c 72be b142 8ebf

bias f4 [16]
-0.0 -0.0 0.0 -0.0 -0.0 -0.0 0.0 0.0
0.0 0.0 -0.0 -0.0 0.0 -0.0 -0.0 -0.0
00000000: 0000 0080 0000 0080 0000 0000 0000 0080
00000010: 0000 0080 0000 0080 0000 0000 0000 0000
00000020: 0000 0000 0000 0000 0000 0080 0000 0080
00000030: 0000 0000 0000 0080 0000 0080 0000 0080
