lorenz attractor/params/cell_7_params.pth (torch, 3134 bytes, 3 tensors)

kernel f4 [3, 16]
000000 48 de 06 be 40 57 ef 3d e8 c7 94 bd fb 3e 54 bf
       -0.13170731 0.116865635 -0.072646916 -0.829086
000010 0a fc 0b 3f 00 00 00 00 c6 0c 1c 3f 18 86 c0 be
       0.54681456 0.0 0.6095699 -0.37602305
000020 00 00 00 00 00 00 00 00 b2 ee 7b 3f 00 00 00 00
       0.0 0.0 0.98411095 0.0
000030 16 4d bf be 70 d7 f9 3d 00 00 00 00 00 00 00 00
       -0.373635 0.121992946 0.0 0.0
000040 00 00 00 00 00 00 00 00 98 d1 b8 3e e0 3a 02 3e
       0.0 0.0 0.36097407 0.12717772
000050 80 14 f1 3d 8c d6 a0 3e 80 b0 26 be 00 00 00 00
       0.11771488 0.31413686 -0.16278267 0.0
000060 86 f3 03 bf 52 73 5d bf 00 00 00 00 4c f4 b6 3e
       -0.5154346 -0.8650409 0.0 0.3573326
000070 00 00 00 00 9b fe 5a bf 00 00 00 00 76 0f b1 be
       0.0 -0.8554475 0.0 -0.34582108
000080 6a 97 5c 3f 00 00 00 00 3c 47 53 bf 00 00 00 00
       0.8616854 0.0 -0.8253057 0.0
000090 00 00 00 00 e0 7c 8d be 4e 42 1f bf 4c 12 2d 3f
       0.0 -0.27634335 -0.6221055 0.67606044
0000a0 2c a4 09 be 30 d1 31 3f 00 00 00 00 00 00 00 00
       -0.13441533 0.6945982 0.0 0.0
0000b0 80 6c c5 3e 98 69 76 3f 00 00 00 00 04 34 09 3f
       0.3855934 0.96254873 0.0 0.53594995

recurrent_kernel f4 [16, 16]
000000 ab 21 8d bf 74 00 fc be f4 43 fa be 95 31 d4 be
       -1.10259 -0.49219096 -0.4887997 -0.41444078
000010 0e 0e 57 bf 28 5b 7a be 82 a1 fa be bf 18 1f bf
       -0.8400582 -0.24448836 -0.48951346 -0.62147135
000020 3e 4b 48 bf ae 8e 85 bb 08 52 d7 3e b1 bf 4b bf
       -0.7823981 -0.0040758466 0.42054772 -0.7958937
000030 d5 7f 86 be 89 b8 e6 be d3 36 33 3d 27 65 14 3f
       -0.26269403 -0.45062664 0.043753456 0.57966846
000040 12 50 ac be aa 2b 2c bf f6 df 55 bd d2 25 31 bf
       -0.3365484 -0.67254126 -0.05221554 -0.69198334
000050 a9 6f 1b 3f 45 e2 48 bf 00 1b d9 3e 7b ea c1 3e
       0.60717255 -0.7847026 0.42403412 0.37874207
000060 2e 9e 24 bf c0 0c e9 3e 78 d3 de be c9 01 84 bd
       -0.64303863 0.4551754 -0.43520713 -0.06445653
000070 22 c9 50 3f 30 c1 41 bf 8d 59 4e bf 8c be 52 3f
       0.81556904 -0.75685406 -0.80605394 0.82322
000080 b9 53 6d 3e dc 37 2b bf 9a 32 8d bf e0 73 22 3f
       0.23176469 -0.6688211 -1.1031067 0.6345806
000090 9b 69 42 3f c7 5e 13 be 2d c8 2a 3f ae c4 f7 3e
       0.7594239 -0.14391623 0.66711694 0.48392242
0000a0 4c 5d 22 3e 41 2c 17 be 89 eb 46 3f 5b 4d 0c be
       0.15855902 -0.14762975 0.7770315 -0.13701384
0000b0 71 3e fe be 78 ec 35 3f 33 45 03 bf 9f e4 e5 bd
       -0.49657014 0.7106395 -0.51277465 -0.11225247
0000c0 0a 70 2e 3e 30 d4 c9 3e 6d fc 32 bf 84 51 89 bf
       0.17034927 0.394197 -0.6991642 -1.0728002
0000d0 bb 32 38 be 5d ab b0 be ad 2c 63 be b6 65 09 3f
       -0.17988102 -0.3450574 -0.22185011 0.53670824
0000e0 cd 2b 4b bf 8f 53 57 3f 0e d0 d0 3e 2d b4 a5 3e
       -0.7936371 0.84111875 0.40783733 0.32364026
0000f0 53 bd 1f bf dc c7 07 bf 22 93 f1 bb eb 26 0f bd
       -0.6239826 -0.53039336 -0.007372276 -0.034949224
000100 47 b3 b8 bd 2d 18 cd bd ee 7d 02 3f 32 59 e1 3d
       -0.090185694 -0.10014377 0.50973403 0.11003341
000110 8d ee 9c bf b1 59 e0 bd 5c dc 8d 3e 50 e5 d3 be
       -1.22603 -0.10954607 0.27707183 -0.4138589
000120 90 06 00 3e e9 38 3f bb f6 21 52 be a6 99 9a 3e
       0.12502503 -0.0029178208 -0.20520768 0.3019535
000130 e8 ac a9 3d a6 ce 10 3f e3 c8 22 bf cf 41 40 bf
       0.082849324 0.5656532 -0.6358778 -0.75100416
000140 46 fd 18 3e 72 50 86 be 05 24 92 3e 6e 83 4b 3f
       0.14940366 -0.2623325 0.28543106 0.7949742
000150 5a 0f f7 3e 43 86 90 bf 1d 87 e6 3e ea 90 3f bf
       0.482539 -1.1290973 0.45024958 -0.74830496
000160 b0 5e f9 bd 6c d0 c1 be ec 78 0a bf 7b 20 44 3f
       -0.12176263 -0.37854326 -0.5409076 0.7661206
000170 d0 3d 37 bf 2e 90 27 be 9b d8 04 bf 20 f9 c2 be
       -0.71578693 -0.16363594 -0.51893014 -0.38080692
000180 18 69 94 bd 3a 15 e1 be b0 6a 1a 3f 6a e6 4c bf
       -0.072466075 -0.43961507 0.6031904 -0.80039084
000190 77 ad 54 be 1c 4b 4b 3f 9b 0b 0b c0 cc b7 b4 3e
       -0.20769297 0.7941148 -2.1725833 0.35296476
0001a0 f9 45 d9 be 05 ac 0c 3e 9b c3 42 bf 4c 97 92 bd
       -0.42436197 0.13737495 -0.7607972 -0.07157764
0001b0 c8 f7 57 bf fa ca 11 3f 9c 71 32 bf 8c 65 50 bf
       -0.8436246 0.5695034 -0.69704604 -0.8140495
0001c0 97 44 48 3f 8e 69 83 3d 98 b4 4c 3f 8c 5a 32 be
       0.7822966 0.06416617 0.79963064 -0.17417353
0001d0 d7 28 44 bf 0d 45 72 be 0c dc 57 bf 8b bb 90 bf
       -0.76624817 -0.23659153 -0.8432014 -1.1307234
0001e0 ae 40 ba 3d 16 4d 35 3f 44 93 06 3f b8 41 a3 3e
       0.09094368 0.7082075 0.5256846 0.31886077
0001f0 d8 49 5d bc 9c b8 93 be 85 4b 36 3f f2 0d 53 bf
       -0.013506375 -0.28851783 0.71208984 -0.82443154
000200 55 5e b4 be 6f 10 50 3f 52 e1 e3 bc 9c 1a 38 3f
       -0.3522822 0.81275076 -0.027817402 0.719156
000210 ce 92 28 bf af 8f 50 3f a4 3a 9f be 7f 27 fa bd
       -0.65849006 0.81469244 -0.31099427 -0.122145645
000220 62 db cb bf ea 79 df 3e 60 d2 fd 3e 79 2f 22 bf
       -1.5926325 0.436477 0.49574566 -0.6335369
000230 d6 03 17 bf 56 5c 5f 3e 8f d7 53 bf 4a 0d 17 3f
       -0.5899023 0.21812567 -0.8275079 0.5900465
000240 55 b6 03 3d f9 4e b8 be 27 0d 46 3d cc 93 1e bf
       0.032156307 -0.3599775 0.048352387 -0.6194427
000250 cb 24 ed 3e 3e 2c 02 3f 8b 6b 32 3f 6a 54 69 3e
       0.46317133 0.5084876 0.6969535 0.22786108
000260 0d b0 ce 3e 91 40 a6 bf c6 c2 06 be 06 f9 18 bf
       0.4036869 -1.2988454 -0.13160238 -0.5975498
000270 9e 85 4a 3f 2b bd 3d bf 0a 08 6f bd 66 57 43 be
       0.79110134 -0.7411677 -0.058357276 -0.19076309
000280 e2 72 05 bf ef f7 8b 3e e6 6a 23 bf 64 2b e7 be
       -0.5212842 0.27337596 -0.6383499 -0.45150292
000290 b4 0f 31 3e c4 91 42 3f 6e a4 2b bf 43 9a 8d bd
       0.17291147 0.7600367 -0.67047775 -0.06914189
0002a0 aa c8 01 3f 35 5b 06 3f 16 70 3a bf d8 fb e1 be
       0.50696814 0.5248292 -0.7282728 -0.44137454
0002b0 90 3c 23 bf fb f8 53 3d 3a 67 56 bf b9 68 0c 3f
       -0.63764286 0.05175112 -0.8375126 0.54847294
0002c0 61 34 c4 bd 0b 13 04 bf 9c 28 50 3f cb 43 82 3d
       -0.09580303 -0.5159156 0.81311965 0.06360587
0002d0 a4 09 05 bf 51 53 36 3e 00 df a9 be 34 cc 04 bf
       -0.51967835 0.1780522 -0.33177948 -0.5187409
0002e0 27 20 c7 be 39 1f 2b bf de fa 53 3f 12 04 ad bf
       -0.38891718 -0.66844517 0.8280467 -1.3516867
0002f0 a5 e1 1a 3f 02 a2 93 be f9 6d 08 3f 40 7f 8e 3d
       0.60500556 -0.2883454 0.53292805 0.06957865
000300 d4 5f a4 3e dc 52 28 bf 14 48 05 3e 5a f0 51 bf
       0.3210436 -0.65751433 0.13015777 -0.8200737
000310 e2 8e 40 bf 79 09 7a be b6 8d 90 bd 0b c8 fa 3e
       -0.7521802 -0.24417676 -0.07058279 0.48980746
000320 51 8c fd 3d b5 31 19 3f 77 6d 0f be 5c c8 f7 3e
       0.12380279 0.5984147 -0.14006601 0.4839505
000330 b6 bc 11 bf 3e a4 86 3e 58 46 b9 3e 22 40 02 bf
       -0.56928575 0.26297182 0.3618648 -0.5087911
000340 cd 53 6d 3e aa 9b 04 bf e2 ca ed 3e db 4e 54 3e
       0.23176499 -0.51800025 0.4644385 0.20733206
000350 9c ae a6 3e 9a c5 0a 3f 72 7d 05 bf 91 f3 93 be
       0.3255509 0.54207766 -0.5214454 -0.28896764
000360 25 8a 17 be da 8c 43 3f 11 88 06 bf a1 71 f2 3e
       -0.14798792 0.763868 -0.5255137 0.47352317
000370 f6 35 2f 3f 78 3b b0 bf 34 1e 1e 3d 98 31 ca 3e
       0.6844171 -1.3768148 0.038603023 0.39490962
000380 d8 c2 55 be bd 82 93 be b4 47 8d be bf 27 10 be
       -0.20875108 -0.28810683 -0.27593768 -0.14077662
000390 4f 9a 02 3f b4 86 bf be 55 af fa be ee 5c 61 3e
       0.51016706 -0.37407458 -0.48961893 0.22008106
0003a0 8d 25 fd 3e 31 4a 7d 3e be d9 a5 bc 9f 23 c3 3e
       0.4944271 0.24735333 -0.02024543 0.38113114
0003b0 77 ff e3 3e 3f 34 4c 3e 6e 49 e8 bf a6 f1 40 bf
       0.44530842 0.19941805 -1.8147409 -0.75368726
0003c0 0a 1f 2a 3f 13 4c be be e8 13 c7 be 3d db f0 be
       0.6645361 -0.37167415 -0.38882375 -0.47042266
0003d0 3d 8f 44 bf 54 c0 07 3f f0 b9 49 bf 98 47 ff 3e
       -0.76781064 0.53027844 -0.78799343 0.4985931
0003e0 f5 28 ae 3d ad 66 be be cc d7 04 3e c6 65 12 bf
       0.08503906 -0.3718771 0.12972945 -0.57186544
0003f0 cc ae 90 bd 2b ed 10 3f 30 84 ff be 11 64 bc bf
       -0.0706459 0.5661189 -0.4990554 -1.4718038

bias f4 [16]
000000 00 00 00 00 00 00 00 00 00 00 00 00 00 00 00 80
       0.0 0.0 0.0 -0.0
000010 00 00 00 00 00 00 00 80 00 00 00 00 00 00 00 80
       0.0 -0.0 0.0 -0.0
000020 00 00 00 80 00 00 00 00 00 00 00 00 00 00 00 00
       -0.0 0.0 0.0 0.0
000030 00 00 00 00 00 00 00 00 00 00 00 00 00 00 00 00
       0.0 0.0 0.0 0.0
