lorenz attractor/params/cell_8_params.pth (torch, 3134 bytes, 3 tensors)

kernel f4 [3, 16]
0	0xbe9cb442	-0.30606276
1	0xbf44ebb9	-0.76922184
2	0x00000000	0.0
3	0x00000000	0.0
4	0x00000000	0.0
5	0x00000000	0.0
6	0xbf1bd928	-0.6087823
7	0xbe9ca202	-0.30592352
8	0x00000000	0.0
9	0xbeb5c080	-0.35498428
10	0xbf398d0e	-0.7248086
11	0x00000000	0.0
12	0x3c57c380	0.013169169
13	0xbf76f910	-0.9647379
14	0xbee18b74	-0.44051707
15	0x3f226556	0.63435876
16	0xbf79efde	-0.97631633
17	0x00000000	0.0
18	0xbe2d3030	-0.16912913
19	0x00000000	0.0
20	0x00000000	0.0
21	0xbf5fef44	-0.87474465
22	0x00000000	0.0
23	0x3ebb8688	0.36626077
24	0xbf1d4256	-0.61429346
25	0x00000000	0.0
26	0x3dd86da0	0.10567784
27	0x3f704dfe	0.93869007
28	0x00000000	0.0
29	0x3f116e10	0.5680857
30	0x3e426810	0.18985009
31	0xbd123650	-0.035696328
32	0x3da3fb00	0.08006859
33	0x3d298e20	0.041395307
34	0xbe9a00ce	-0.3007874
35	0x3f6fd060	0.9367733
36	0x00000000	0.0
37	0x00000000	0.0
38	0x3edea288	0.43483377
39	0x3f1eb902	0.6200105
40	0x3c6da700	0.014505148
41	0x00000000	0.0
42	0xbf22f435	-0.6365388
43	0xbf589860	-0.84607506
44	0x00000000	0.0
45	0x3da61530	0.0810951
46	0x00000000	0.0
47	0x00000000	0.0

recurrent_kernel f4 [16, 16]
0	0xc00989f1	-2.1490443
1	0xbe9a9a9c	-0.30196083
2	0x3ea98fd4	0.33117545
3	0x3c39690e	0.011316551
4	0xbf41c52e	-0.756915
5	0xbf1a12a5	-0.601847
6	0x3eb928c7	0.36163923
7	0xbe96b9ca	-0.2943862
8	0x3e6e7d65	0.23290022
9	0xbf32aa8f	-0.697915
10	0x3f2106e0	0.62901115
11	0x3f33fd52	0.7030841
12	0x3f2d50dd	0.6770151
13	0x3e164e2b	0.14678256
14	0xbe490ade	-0.19633052
15	0xbebb5c19	-0.36593702
16	0x3f33a95a	0.70180285
17	0xc0136fe8	-2.3037052
18	0xbe1c5d98	-0.15270078
19	0x3ede0420	0.43362522
20	0xbcf3b6c8	-0.029750243
21	0x3ed1306c	0.40857255
22	0xbea409b4	-0.32038653
23	0x3f2476aa	0.64243567
24	0x3db74d0c	0.089502424
25	0xbf3ba602	-0.7330018
26	0xbf05fd4b	-0.5233962
27	0x3cfd1af2	0.030896638
28	0xbefe173e	-0.49627107
29	0x3f3f858a	0.7481314
30	0x3f41c280	0.7568741
31	0x3ecc3afa	0.39888746
32	0xbf031e70	-0.5121832
33	0x3f0de0ee	0.5542134
34	0xbff197d5	-1.887446
35	0xbf025ffc	-0.5092771
36	0xbea305e9	-0.31840447
37	0xbf3b85c7	-0.73251003
38	0xbeb709d0	-0.35749674
39	0x3ea8281b	0.32843098
40	0xbe709188	-0.23493016
41	0xbd0798be	-0.03310465
42	0x3f1cbe5c	0.61227965
43	0xbebf5887	-0.37372229
44	0x3cb4010f	0.021973161
45	0x3d4985ba	0.049199797
46	0x3e8a9f6d	0.27074757
47	0x3e275fa6	0.1634508
48	0x3f363015	0.7116712
49	0x3d3a3b76	0.045466863
50	0x3e6b4191	0.2297423
51	0xc01bb4f2	-2.432919
52	0x3ea92f08	0.33043694
53	0x3dddc368	0.108282864
54	0xbf3ff5fc	-0.7498472
55	0xbe739ed1	-0.23791052
56	0x3f0a4604	0.54013085
57	0xbe8a3a1d	-0.26997462
58	0xbdfa6fa6	-0.122283265
59	0xbed8b2f5	-0.42324033
60	0x3e5661e1	0.20935775
61	0x3ee8b5bc	0.45451152
62	0x3f2bd7d2	0.6712619
63	0x3ea3227a	0.3186224
64	0xbf36ebc7	-0.7145352
65	0x3f25b035	0.64721996
66	0xbf3a347f	-0.7273635
67	0xbf2448ce	-0.6417359
68	0xc00c1cc0	-2.1892548
69	0xbf3f8720	-0.7481556
70	0xbea9402c	-0.33056772
71	0x3c87499e	0.016514596
72	0xbe06623e	-0.13123414
73	0xbf16e457	-0.5894217
74	0x3f274c06	0.6535038
75	0xbf3177af	-0.6932325
76	0x3f13de6c	0.57761264
77	0xbf23653d	-0.6382635
78	0xbdfe05f0	-0.12403476
79	0x3efc87f6	0.4932248
80	0x3f3a22b9	0.7270923
81	0x3f3fee5a	0.7497307
82	0xbf29f404	-0.66387963
83	0xbd80368d	-0.06260405
84	0xbe646e01	-0.22307588
85	0xbfc55021	-1.5415078
86	0x3e567ade	0.20945308
87	0xbe934af9	-0.28768137
88	0xbe9034ed	-0.2816538
89	0x3f27479e	0.65343654
90	0xbeb6df41	-0.35717204
91	0x3dd97d3b	0.10619589
92	0xbdcc1d53	-0.09966531
93	0xbd4097f2	-0.047019906
94	0xbdc81dc4	-0.09771302
95	0xbe2fb57d	-0.17159076
96	0xbeb635ab	-0.3558782
97	0xbf073161	-0.5280972
98	0x3ca38684	0.019961603
99	0xbe424b5c	-0.1897406
100	0xbf373cd6	-0.71577203
101	0x3e85ce59	0.26133993
102	0xc0190c84	-2.391389
103	0xbf28b7a3	-0.6590521
104	0x3efc5428	0.49282956
105	0x3e5d0886	0.21585283
106	0xbf3957ef	-0.723998
107	0x3e1a1c3b	0.15049832
108	0x3d974946	0.07387023
109	0xbe9f0c1a	-0.3106392
110	0x3f12798b	0.5721671
111	0x3ead8ba2	0.33895594
112	0x3e8a38be	0.26996416
113	0x3f3ef3f8	0.74591017
114	0xbe7c7b3c	-0.24656385
115	0x3f0fe96b	0.5621554
116	0xbed2239b	-0.4104279
117	0xbea89d6e	-0.3293261
118	0x3eac49f8	0.33650184
119	0xbfd2c689	-1.6466838
120	0xbe3dbf23	-0.18529944
121	0xbf3410c0	-0.7033806
122	0xbefec9cd	-0.49763337
123	0xbee34f1a	-0.44396287
124	0xbf2587a0	-0.6466007
125	0xbf27c2df	-0.65531725
126	0xbdf58266	-0.11987762
127	0xbda582d2	-0.080815926
128	0x3f1f93c8	0.6233487
129	0x3ef19224	0.4718181
130	0xbe5228f5	-0.20523436
131	0xbe9fe2db	-0.31227764
132	0xbe87a609	-0.26493862
133	0xbf263174	-0.6491921
134	0x3b245a57	0.002507826
135	0x3e58d956	0.21176657
136	0xc01e081a	-2.4692445
137	0xbec5b4bc	-0.38614452
138	0xbed42c68	-0.4144013
139	0x3f027228	0.5095544
140	0xbf27e153	-0.6557819
141	0xbe9b1845	-0.30291954
142	0xbf07aced	-0.5299824
143	0xbe8421bd	-0.2580699
144	0x3ef02c8d	0.4690899
145	0xbe6f0b6e	-0.23344204
146	0xbe0392f9	-0.12849034
147	0xbf25d8aa	-0.6478373
148	0xbf21a067	-0.6313538
149	0x3ed781ca	0.4209121
150	0x3e1d459e	0.15358588
151	0xbf21c818	-0.63195944
152	0xbe912574	-0.28348887
153	0xc034a4ee	-2.8225665
154	0x3e30f4ff	0.17280959
155	0xbede1143	-0.43372545
156	0xbe8176cf	-0.25285956
157	0xbf39598a	-0.7240225
158	0x3f1d8de9	0.6154466
159	0x3e85da5e	0.26143163
160	0xbf3502a4	-0.70707154
161	0x3f1bafb2	0.60814965
162	0xbf018db2	-0.50606835
163	0x3e56ea79	0.20987882
164	0xbcebc347	-0.028779639
165	0x3d2122bc	0.039339766
166	0xbef6e15a	-0.48218805
167	0xbf3ac2fa	-0.7295376
168	0xbf3967ba	-0.724239
169	0x3ed0070e	0.40630382
170	0xc01b07ec	-2.4223585
171	0x3e8f1efe	0.27953333
172	0x3f127032	0.57202446
173	0x3f325808	0.69665575
174	0x3e11a803	0.14224248
175	0x3f184b82	0.59490216
176	0xbe21fa52	-0.15818146
177	0xbefbc260	-0.49171734
178	0xbef68cb6	-0.4815423
179	0xbec30d12	-0.3809591
180	0xbe1169bc	-0.1420049
181	0xbe5db6f7	-0.21651827
182	0xbe9df894	-0.30853713
183	0x3ea7bb98	0.3276031
184	0xbf27ded0	-0.6557436
185	0x3efde606	0.49589556
186	0xbe89589a	-0.2682541
187	0xc0374dda	-2.8641267
188	0x3f27c2ef	0.6553182
189	0xbf01d152	-0.5071002
190	0xbe795cd8	-0.24351823
191	0xbf250cf7	-0.6447291
192	0xbe824177	-0.2544057
193	0xbe2bb18e	-0.1676695
194	0x3db7b7c6	0.08970599
195	0xbf3dc639	-0.7413059
196	0x3f02612e	0.50929534
197	0x3e9268f5	0.285957
198	0xbeeb87b4	-0.4600197
199	0xbf1da5dc	-0.61581206
200	0x3ec7f93a	0.39057332
201	0xbe1ca970	-0.1529901
202	0xbef79270	-0.4835391
203	0x3d45f8e0	0.04833305
204	0xbfbb4c2f	-1.4632624
205	0xbe432d3c	-0.19060224
206	0x3d1a9131	0.03773612
207	0x3f1d0758	0.6133933
208	0x3ef41bd4	0.4767748
209	0x3f1f6224	0.62259126
210	0x3ef91b4a	0.48653632
211	0xbf0d7c5f	-0.552679
212	0x3f05c4a1	0.52253157
213	0xbea7c12e	-0.32764572
214	0xbf1cef63	-0.61302775
215	0x3f1180cc	0.56837153
216	0xbefddaa3	-0.4958087
217	0x3dfb5ef4	0.1227397
218	0xbe3bc407	-0.18336497
219	0xbe58bc5b	-0.21165602
220	0x3f2af3f7	0.6677851
221	0xbfe7c4bc	-1.8106914
222	0xbeb34d55	-0.35019937
223	0x3ea6ab5c	0.32552612
224	0x3d1d3771	0.03838295
225	0xbe88472c	-0.266168
226	0xbf106c58	-0.5641532
227	0x3d216c80	0.039410114
228	0x3e879093	0.2647749
229	0xbadf335c	-0.0017028856
230	0x3f1aada8	0.6042123
231	0x3f3beae8	0.73405313
232	0x3e817c91	0.2529035
233	0x3f34e0c0	0.7065544
234	0x3e1c6cdb	0.152759
235	0xbf3cf42a	-0.73810065
236	0x3c97cce3	0.018530315
237	0x3f33f614	0.7029736
238	0xc015737e	-2.335174
239	0xbf226ef0	-0.6345053
240	0xbf070db5	-0.5275529
241	0x3e508857	0.2036451
242	0xbdb9ace0	-0.090661764
243	0x3d8f87b2	0.07008304
244	0x3e15b89c	0.14621204
245	0xbe4b6023	-0.19860892
246	0xbf3f60fe	-0.74757373
247	0x3f2dfa6c	0.6796024
248	0xbf2fbf64	-0.68651414
249	0x3ef2b8ea	0.47406703
250	0x3dae5032	0.0851139
251	0xbd65b35b	-0.05607925
252	0x3e81624d	0.2527031
253	0x3f3395f7	0.70150703
254	0xbf3deff2	-0.7419425
255	0xc0167fec	-2.3515577

bias f4 [16]
0	0x80000000	-0.0
1	0x00000000	0.0
2	0x00000000	0.0
3	0x80000000	-0.0
4	0x00000000	0.0
5	0x00000000	0.0
6	0x00000000	0.0
7	0x80000000	-0.0
8	0x00000000	0.0
9	0x00000000	0.0
10	0x00000000	0.0
11	0x00000000	0.0
12	0x80000000	-0.0
13	0x00000000	0.0
14	0x00000000	0.0
15	0x00000000	0.0
